weights/25Gauss_G_5000eps.pt (torch, 536568 bytes, 8 tensors)

weight f4 [256, 2]
-0.5966302 -0.3839967 -0.08332686 -0.37298775 -0.45667586 0.3181907 -0.41374734 0.28646472
0.22094391 0.25427026 0.1325203 0.3208987 0.27039856 0.4612505 -0.42492583 0.29534996
0.59728456 0.5104148 0.16840786 0.2810554 -0.4596998 0.40963355 -0.2289965 -0.55361164
0.38672718 0.5844156 0.5055994 -0.4390473 0.2303636 0.4248047 -0.061101515 0.41795382
0.6608278 0.31421828 -0.5636303 0.34597883 0.07540648 0.59795827 -0.018824773 -0.6084227
0.12124582 0.16504554 0.35639817 -0.4723122 -0.14701663 0.4556365 0.59662026 -0.10352596
-0.19617517 0.36114147 0.3123792 -0.36798456 0.53751796 -0.3098277 0.17274229 -0.3265235
0.68348926 0.60112697 -0.35230485 -0.28504616 0.68336415 0.555279 0.120633215 -0.0051276498
-0.26864755 0.1810948 -0.632956 -0.52661365 -0.6346036 -0.55224526 0.5294574 -0.040058665
0.0016223812 0.1887675 -0.6477696 -0.27050704 -0.3510362 -0.5324328 -0.10525608 0.20890059
-0.13915609 0.52789295 -0.18008262 0.10610668 -0.23770256 -0.59512454 0.117630236 0.29237
0.34046754 0.518409 0.66896725 -0.20427103 -0.10398101 0.68323255 -0.33695906 -0.50522417
-0.64928323 -0.08919533 0.16740799 0.45975062 0.20855707 0.1324544 0.22857334 0.6551494
0.1332356 0.22056846 0.49045944 0.69143623 -0.1892823 0.50158155 -0.41787618 0.4762525
-0.57379746 0.41253096 -0.47641355 0.16782129 0.3034068 -0.1862827 0.30391157 0.27777132
-0.00835289 -0.3043814 -0.30257744 -0.29577512 -0.25539336 -0.37824506 -0.54126835 0.105572924
0.3170188 -0.64576864 -0.634414 -0.64857566 0.2444001 0.35517988 0.3848964 0.38549712
0.65825385 0.060514342 0.6301446 0.34812975 -0.20448987 0.55401534 -0.15261808 0.55884516
0.07306721 0.04494034 -0.7042656 0.50980806 0.53031695 0.72164416 0.62562543 0.30337945
-0.111138456 0.051060908 -0.7512356 0.49728078 0.26402867 -0.47505122 -0.35961416 -0.27810708
-0.33014247 0.19070177 -0.59137315 0.08849872 -0.10610738 0.16191769 -0.25968382 0.42775103
0.48159885 -0.6561049 -0.19901831 -0.5333135 -0.40552598 0.031681668 0.05378772 0.32825613
0.2146624 -0.13528822 0.33640262 0.6481737 -0.63385665 -0.25420937 -0.48772258 -0.72058004
-0.37245303 -0.56586015 0.3426892 0.49916774 0.33514214 0.6040636 -0.10230585 -0.5023261
0.7735304 -0.5552488 0.23422472 -0.58871657 0.0013336277 -0.5021737 -0.047075443 0.0047257426
-0.1092784 0.5056508 -0.6377194 -0.33465794 0.19332838 -0.13789587 -0.47428727 0.61353785
-0.06734402 -0.34131655 -0.5477918 -0.19313541 -0.49435747 -0.21800457 -0.36238593 -0.0049535516
0.052829653 -0.6085832 -0.001139136 0.5376636 0.5715587 -0.5238104 -0.1439419 0.088402525
0.6263476 -0.28147957 0.48833436 -0.31509665 -0.10660133 -0.033190038 0.5926655 -0.6472563
-0.5374255 -0.39147085 -0.5154129 -0.059107304 -0.50302315 0.058246285 -0.1668747 -0.049192987
-0.07420302 0.21588156 0.2312312 0.091122314 0.10369178 0.05997075 -0.5091413 0.3516061
-0.4663974 0.14438537 -0.5039862 0.09800369 -0.6327166 0.21258223 -0.46995836 -0.59154457
00000000: c2bc 18bf 379b c4be 46a7 aabd 40f8 bebe
00000010: 6bd1 e9be e4e9 a23e b1d6 d3be 81ab 923e
00000020: 1f3f 623e b62f 823e 67b3 073e d64c a43e
00000030: ae71 8a3e 0729 ec3e e18f d9be 1c38 973e
00000040: a4e7 183f 8baa 023f 1c73 2c3e 7ee6 8f3e
00000050: c65d ebbe 7dbb d13e 0f7e 6abe 7eb9 0dbf
00000060: 1b01 c63e 439c 153f f66e 013f cfca e0be
00000070: 70e4 6b3e 0080 d93e 9545 7abd 0bfe d53e
00000080: 032c 293f 38e1 a03e 134a 10bf 2324 b13e
00000090: b66e 9a3d cb13 193f 6936 9abc 97c1 1bbf
000000a0: ba4f f83d b301 293e d279 b63e e8d2 f1be
000000b0: 878b 16be 3049 e93e 1bbc 183f 6b05 d4bd
000000c0: 25e2 48be 89e7 b83e 2bf0 9f3e 7968 bcbe
000000d0: c79a 093f bca1 9ebe 5be3 303e 172e a7be
000000e0: 27f9 2e3f 75e3 193f 4d61 b4be 92f1 91be
000000f0: f4f0 2e3f c426 0e3f 8c0e f73d d805 a8bb
00000100: 2c8c 89be ea70 393e 6809 22bf 27d0 06bf
00000110: 6275 22bf f25f 0dbf 858a 073f 8e14 24bd
00000120: 14a6 d43a 444c 413e 3ad4 25bf e67f 8abe
00000130: 04bb b3be 844d 08bf 8090 d7bd 09ea 553e
00000140: ef7e 0ebe fe23 073f 9467 38be 764e d93d
00000150: 4d68 73be 155a 18bf 1fe8 f03d 85b1 953e
00000160: c351 ae3e 74b6 043f 7041 2b3f 6d2c 51be
00000170: fff3 d4bd 54e8 2e3f e685 acbe 5f56 01bf
00000180: 6d37 26bf 0bac b6bd 006d 2b3e 6f64 eb3e
00000190: fc8f 553e 20a2 073e 210f 6a3e dfb7 273f
000001a0: ea6e 083e b3dc 613e 801d fb3e f701 313f
000001b0: 38d3 41be a667 003f def3 d5be 5ed7 f33e
000001c0: 64e4 12bf 4237 d33e 7aec f3be 58d9 2b3e
000001d0: 2358 9b3e e4c0 3ebe 4c9a 9b3e 0b38 8e3e
000001e0: 8fda 08bc e1d7 9bbe 6eeb 9abe d66f 97be
000001f0: ebc2 82be 56a9 c1be 9090 0abf 9e36 d83d
00000200: 4a50 a23e 1851 25bf f568 22bf 0e09 26bf
00000210: 0544 7a3e 23da b53e 2411 c53e e15f c53e
00000220: 5383 283f e3dd 773d 2851 213f 103e b23e
00000230: cb65 51be f3d3 0d3f ea47 1cbe 7a10 0f3f
00000240: 43a4 953d 5d13 383d c04a 34bf c882 023f
00000250: dac2 073f acbd 383f fd28 203f 8d54 9b3e
00000260: 8f9c e3bd 3e25 513d fa50 40bf 969b fe3e
00000270: c42e 873e ea39 f3be 591f b8be 0d64 8ebe
00000280: 6f08 a9be 5347 433e 3b64 17bf d13e b53d
00000290: d34e d9bd c0cd 253e 47f5 84be 2f02 db3e
000002a0: 2094 f63e 7ef6 27bf 75cb 4bbe 3c87 08bf
000002b0: 1aa1 cfbe a3c4 013d 8350 5c3d 3011 a83e
000002c0: 76d0 5b3e ff88 0abe f73c ac3e b6ee 253f
000002d0: 6e44 22bf bb27 82be c6b6 f9be ef77 38bf
000002e0: 2ab2 bebe 36dc 10bf f574 af3e ea92 ff3e
000002f0: c097 ab3e e9a3 1a3f bb85 d1bd 7198 00bf
00000300: 1706 463f c924 0ebf 9bd8 6f3e 21b6 16bf
00000310: 1fcd ae3a 758e 00bf 2ed2 40bd 67da 9a3b
00000320: 5bcd dfbd 5572 013f 9441 23bf 4958 abbe
00000330: e0f7 453e 9334 0dbe c8d5 f2be d110 1d3f
00000340: a9eb 89bd 0bc1 aebe 153c 0cbf 4ac5 45be
00000350: 6c1c fdbe 973c 5fbe a68a b9be 6751 a2bb
00000360: e863 583d 1ccc 1bbf 104f 95ba 52a4 093f
00000370: ac51 123f 7018 06bf 8165 13be 620c b53d
00000380: 5158 203f 171e 90be f606 fa3e 5954 a1be
00000390: cc51 dabd 47f2 07bd edb8 173f 97b2 25bf
000003a0: b894 09bf de6e c8be 1af2 03bf 801a 72bd
000003b0: 20c6 00bf a893 6e3d 34e1 2abe 967e 49bd
000003c0: c1f7 97bd 0e10 5d3e dfc7 6c3e 569e ba3d
000003d0: 5b5c d43d e4a3 753d 1657 02bf b705 b43e
000003e0: a4cb eebe c2d9 133e 3d05 01bf 29b6 c83d
000003f0: b7f9 21bf 28af 593e 629e f0be 776f 17bf

bias f4 [256]
-0.055858817 -0.4762047 -0.06519115 0.17419441 0.39760897 0.4125352 0.59442437 0.51606697
-0.066778764 -0.33829513 -0.54801345 0.11394371 -0.53574485 0.49868765 0.48372057 -0.37831855
0.6071935 -0.50687754 0.50483626 0.41967338 0.29319412 0.17361039 0.6282007 -0.20095448
0.072689846 -0.19523084 -0.67610806 0.048559442 -0.0034356907 -0.5340204 -0.2542834 0.1032359
0.59977496 -0.6964524 -0.48827794 0.6159328 -0.064580314 0.13618901 -0.4905246 0.39869767
0.40083668 -0.20771833 0.087091014 -0.12245203 -0.47567463 0.59885496 -0.6494813 -0.46741632
0.6500169 0.43084693 -0.43175802 0.054061856 0.550488 0.38132823 0.5808736 0.5694014
0.22109479 -0.60503805 0.26515806 -0.15010005 0.38411862 0.045957178 -0.07110386 0.57585114
-0.28695744 0.07924898 0.17714025 0.061421797 -0.43096346 0.1269825 -0.12507966 0.49234644
-0.6541494 -0.34335732 -0.69022375 -0.17286117 -0.6290745 -0.33284017 -0.38689542 0.45171973
0.24541683 0.30706254 -0.0931403 0.4258622 0.24065295 0.7074246 -0.506321 0.597072
0.69852614 -0.6472573 0.6159329 0.3361804 -0.52107674 0.24967448 0.7061029 0.0451205
-0.6788599 0.39887238 0.7010897 0.3217954 0.12697549 -0.14914744 -0.022953095 -0.16817407
-0.23406282 0.15930384 -0.3277101 -0.16610837 -0.5160553 -0.062453587 0.3641985 -0.12900789
0.12149561 0.40956837 0.3813924 -0.25596654 0.59755033 -0.38794932 -0.36937657 0.37689584
-0.43532693 -0.010121356 -0.6303849 0.21970658 -0.038259413 -0.30324864 -0.27242318 0.61660767
0.60914326 0.19012867 -0.612735 0.35228223 0.6198828 0.6169107 -0.70322937 0.15238339
-0.5162395 -0.098472916 -0.18595663 0.043956697 0.09692001 0.09875134 -0.42019463 -0.2602374
0.35381994 -0.23788393 0.47422037 -0.42258823 -0.22605525 -0.25282013 0.42436516 -0.4720059
0.43111312 0.27834952 -0.058969717 -0.39137676 0.06347577 -0.19689122 0.51840055 -0.6813188
0.6669615 -0.5935087 0.34780994 0.38519442 0.4271606 -0.06596633 -0.61754185 -0.14258742
0.15957557 0.2584574 -0.555886 -0.1257878 0.2288684 -0.079125226 -0.51016635 0.63474363
0.72639734 -0.12492966 -0.004930983 -0.64907026 0.326361 -0.62394387 0.06769404 -0.18600538
-0.015701259 -0.15398285 -0.41874853 -0.6106826 -0.2838362 0.32462513 0.41601953 0.3205293
-0.48217413 0.23105156 -0.30032465 0.6215167 0.511412 0.12837686 -0.53483176 -0.24703048
-0.21150067 -0.4827507 0.13998877 -0.5963967 0.16902663 0.5475616 0.35777852 -0.39849436
0.2288833 0.4387269 -0.19678858 0.66225564 0.12630959 0.6934879 -0.1416326 -0.58425957
-0.44138098 -0.46729413 -0.6681139 0.10106181 0.5217256 0.31977007 -0.68803626 -0.14549312
0.44999233 -0.23300838 0.5010297 -0.53865933 -0.030707179 -0.2617346 -0.68296486 0.5014536
-0.46134514 0.051486094 -0.5675396 0.23820426 0.7001999 0.15744017 0.0026515233 -0.13219044
-0.68989855 -0.31800598 0.26079527 -0.34619123 0.44014868 -0.42502445 0.14078087 -0.34344253
-0.2985637 0.038185745 0.09052439 0.59082633 0.60546017 -0.082675695 -0.3380063 0.686559
00000000: 37cc 64bd 1ad1 f3be f082 85bd 0560 323e
00000010: 6793 cb3e d037 d33e 322c 183f f71c 043f
00000020: 4ec3 88bd 0535 adbe 9c4a 0cbf 525b e93d
00000030: 9326 09bf fd53 ff3e 39aa f73e f8b2 c1be
00000040: 0971 1b3f bac2 01bf f33c 013f 6edf d63e
00000050: 8a1d 963e ecc6 313e c3d1 203f 03c7 4dbe
00000060: 6ade 943d 98ea 47be 6b15 2dbf 44e6 463d
00000070: 5329 61bb 90b5 08bf 6f31 82be 586d d33d
00000080: da8a 193f b44a 32bf 91ff f9be c6ad 1d3f
00000090: af42 84bd 2275 0b3e 0a26 fbbe 1a22 cc3e
000000a0: 773a cd3e 1db4 54be c65c b23d 21c8 fabd
000000b0: a08b f3be 8f4e 193f 6844 26bf 3151 efbe
000000c0: 8267 263f f897 dc3e 630f ddbe f76f 5d3d
000000d0: c8ec 0c3f 743d c33e 22b4 143f 4ac4 113f
000000e0: ac66 623e c6e3 1abf ccc2 873e d4b3 19be
000000f0: 32ab c43e 983d 3c3d e79e 91bd fb6a 133f
00000100: 16ec 92be 4a4d a23d 4164 353e 6c95 7b3d
00000110: 3ea7 dcbe b307 023e e214 00be d514 fc3e
00000120: 5676 27bf 88cc afbe 81b2 30bf 8502 31be
00000130: 070b 21bf 076a aabe 2817 c6be cf47 e73e
00000140: 8d4e 7b3e 4d37 9d3e 57c0 bebd 9c0a da3e
00000150: ba6d 763e c719 353f 419e 01bf b6d9 183f
00000160: 9cd2 323f a8b2 25bf c7ad 1d3f d61f ac3e
00000170: 4965 05bf abaa 7f3e 29c3 343f 46d0 383d
00000180: c3c9 2dbf 0039 cc3e 9d7a 333f 5ec2 a43e
00000190: dd05 023e 1bba 18be 2108 bcbc d335 2cbe
000001a0: 2aae 6fbe 8c20 233e 9ec9 a7be 5018 2abe
000001b0: 331c 04bf 55cf 7fbd 3a78 ba3e a51a 04be
000001c0: b1d2 f83d f2b2 d13e dd45 c33e 0c0e 83be
000001d0: 0ff9 183f 4ba1 c6be ed1e bdbe 7ef8 c03e
000001e0: 2ce3 debe 0bd4 25bc e860 21bf c3fa 603e
000001f0: e7b5 1cbd 6843 9bbe 0d7b 8bbe 00da 1d3f
00000200: d0f0 1b3f 17b1 423e 33dc 1cbf 565e b43e
00000210: a4b0 1e3f dced 1d3f d706 34bf 640a 1c3e
00000220: 4628 04bf 2bac c9bd 6a6b 3ebe f00b 343d
00000230: 007e c63d 243e ca3d c023 d7be d63d 85be
00000240: e327 b53e d897 73be 03cd f23e 7c5d d8be
00000250: 077b 67be a471 81be 6446 d93e c2aa f1be
00000260: dcba dc3e d483 8e3e 3b8a 71bd 8962 c8be
00000270: 96ff 813d da9d 49be e6b5 043f e96a 2ebf
00000280: fdbd 2a3f 30f0 17bf 2514 b23e 3438 c53e
00000290: cbb4 da3e 5b19 87bd 3917 1ebf 7002 12be
000002a0: c767 233e 8754 843e 8b4e 0ebf 84ce 00be
000002b0: 7a5c 6a3e 680c a2bd 439a 02bf 8f7e 223f
000002c0: 2df5 393f 1fdb ffbd 1594 a1bb 7829 26bf
000002d0: ca18 a73e c9ba 1fbf 2ca3 8a3d 3278 3ebe
000002e0: ed9f 80bc aead 1dbe 3566 d6be b255 1cbf
000002f0: fa52 91be 4435 a63e 8300 d53e 6b1c a43e
00000300: 87df f6be c898 6c3e 27c4 99be b81b 1f3f
00000310: e6eb 023f 3975 033e bcea 08bf 8ff5 7cbe
00000320: a293 58be 1a2b f7be 3759 0f3e 74ad 18bf
00000330: 5115 2d3e ff2c 0c3f bf2e b73e 7407 ccbe
00000340: 6260 6a3e d0a0 e03e f282 49be 9689 293f
00000350: 4d57 013e 6c88 313f 2308 11be 0992 15bf
00000360: b0fc e1be 2d41 efbe 8309 2bbf 7ff9 ce3d
00000370: cf8f 053f e7b8 a33e 2523 30bf 26fc 14be
00000380: 6565 e63e c099 6ebe 7b43 003f 94e5 09bf
00000390: 9f8d fbbc 1402 86be c9d6 2ebf 435f 003f
000003a0: 6e35 ecbe 15e3 523d 464a 11bf d1eb 733e
000003b0: 4d40 333f ff37 213e 2ec5 2d3b ee5c 07be
000003c0: 319d 30bf aed1 a2be f586 853e fa3f b1be
000003d0: 2b5b e13e ce9c d9be dc28 103e b3d7 afbe
000003e0: 57dd 98be a868 1c3d da64 b93d 6540 173f
000003f0: 70ff 1a3f e051 a9bd 290f adbe 55c2 2f3f

weight f4 [256, 256]
0.025430968 0.02066272 -0.047932565 -0.044514984 0.040592063 0.040154725 0.017409543 0.011609229
-0.0028548513 0.057811655 0.028505519 -0.00450601 0.037725676 -0.050397113 0.0368685 0.02960442
-0.0354951 -0.09917987 0.011682888 0.049991786 0.029170655 -0.061733052 0.058526848 -0.007198439
-0.034823116 0.02895075 0.02394262 -0.029502992 -0.03232826 0.047465887 -0.05213711 0.029092165
-0.012141797 -0.007985969 -0.037600953 0.044020116 -0.0033614265 0.020406174 -0.0008172705 0.050944008
0.03951132 0.015188256 -0.02467893 0.030689064 -0.010163961 -0.05676121 -0.0209227 -0.040901206
0.029981438 0.034349203 -0.039383616 -0.014759075 0.046047825 -0.0026993107 0.0639762 -0.03693697
-0.04874348 0.005279065 -0.05831785 0.06396238 0.0065742983 -0.05178067 0.032855954 -0.032681808
0.029589437 0.04937618 -0.052382816 0.024491325 -0.06817829 0.057160728 0.019780876 0.05883192
-0.045486063 0.051636126 -0.059843767 -0.019198481 -0.015344478 0.044151977 0.05445763 0.06208551
-0.003141198 -0.028324217 -0.044033587 0.008319156 0.036381513 0.043761875 -0.04969361 -0.011156068
0.022625241 -0.0018294726 -0.047800954 0.03789614 -0.044147238 -0.047947984 -0.0355476 -0.048682474
0.060523957 0.062458012 -0.0011855948 0.042514205 0.0041729696 0.012491413 -0.044807073 -0.023384292
-0.053105846 0.0016609112 0.022342924 0.028334357 0.016060771 -0.040051937 0.05970886 -0.058650184
0.049464095 -0.04703108 0.03087322 0.0343718 0.0028826715 -0.022342267 0.007973643 0.046033435
-0.005578213 -0.051458754 -0.05838929 -0.057654753 0.004137623 -0.012239781 0.018663496 -0.043828174
0.048010856 -0.03089166 -0.018328339 -0.0060438206 0.03758968 0.06320855 -0.030857183 0.048230167
-0.063289344 0.05441493 -0.03873162 -0.019721605 -0.04940802 -0.046019893 -0.018797621 0.0021404647
-0.027131783 -0.022955738 -0.00040504063 -0.022763263 0.036320753 0.028305486 0.0440443 -0.041299894
0.022388376 0.055369973 0.00884981 -0.027143568 -0.009689176 -0.021825133 0.031813506 0.03273487
-0.0022212616 -0.0014877815 0.061781738 -0.0032006442 0.044613186 -0.011860766 -0.011701864 -0.024626656
-0.023918374 -0.036205966 0.016677473 -0.0009953245 -0.00077167904 -0.043446496 0.019678667 0.05911962
-0.030563796 0.01597523 -0.041393742 -0.09555342 -0.054877117 -0.045557395 0.038176462 0.014626795
-0.008762699 0.033264156 0.0035800014 -0.06349189 -0.010340522 -0.049713276 0.0060687074 0.049939685
0.036493644 -0.05123475 -0.036867373 0.010530782 -0.007813505 0.03489601 -0.03822937 -0.0048754713
-0.013687367 -0.029178726 -0.021643702 -0.07964992 -0.04107887 0.07031591 -0.025834624 -0.028745038
-0.031019125 -0.057921782 0.001726496 0.021737246 -0.033487856 0.06437631 0.007939945 0.05050228
-0.07614998 0.022849543 0.0084991325 -0.02927911 0.03351399 -0.059555046 0.0022564458 -0.028476538
0.050120264 0.034673683 0.049822584 -0.052018408 -0.007165615 -0.016353164 0.04820061 -0.011995898
-0.045068752 0.058597285 -0.026267577 0.05790852 0.024484493 0.05067978 0.046116844 -0.031791404
0.043997433 -0.016315086 0.03159436 0.03274982 0.055217743 -0.015533218 0.05060281 -0.050464068
0.0112538105 -0.053984955 -0.038189642 0.002218205 -0.05503914 0.04275538 0.015704276 0.010874609
00000000: 9b54 d03c dd44 a93c f054 44bd 5855 36bd
00000010: dd43 263d 4879 243d 759e 8e3c a334 3e3c
00000020: 7518 3bbb eacb 6c3d 6884 e93c 27a7 93bb
00000030: 3d86 1a3d 346d 4ebd 6d03 173d f884 f23c
00000040: 4f63 11bd d11e cbbd 9569 3f3c 30c4 4c3d
00000050: 4cf7 ee3c ccdb 7cbd d9b9 6f3d e2e0 ebbb
00000060: afa2 0ebd 202a ed3c 5023 c43c 42b0 f1bc
00000070: a36a 04bd 976b 423d b98d 55bd b152 ee3c
00000080: 63ee 46bc 95d7 02bc 7503 1abd 704e 343d
00000090: 614b 5cbb d92a a73c 183e 56ba aaaa 503d
000000a0: 9fd6 213d 2ad8 783c 782b cabc a267 fb3c
000000b0: be86 26bc 717e 68bd 1566 abbc 0688 27bd
000000c0: a29b f53c c0b1 0c3d b750 21bd 0cd0 71bc
000000d0: a59c 3c3d ebe6 30bb f405 833d 384b 17bd
000000e0: 3ea7 47bd 02fc ac3b b3de 6ebd b5fe 823d
000000f0: 366d d73b f817 54bd f793 063d 5cdd 05bd
00000100: 8c65 f23c ad3e 4a3d 5d8f 56bd 08a2 c83c
00000110: 0fa1 8bbd 5e21 6a3d 810b a23c bdf9 703d
00000120: 984f 3abd 6780 533d bd1e 75bd 2246 9dbc
00000130: 6867 7bbc b4d8 343d f70e 5f3d 604d 7e3d
00000140: 8fdc 4dbb 3008 e8bc 905c 34bd 124d 083c
00000150: c804 153d a73f 333d 878b 4bbd f1c7 36bc
00000160: 9258 b93c eaca efba efca 43bd fc38 1b3d
00000170: bcd3 34bd 1b65 44bd 5c9a 11bd 4667 47bd
00000180: f8e7 773d f9d3 7f3d f665 9bba 6023 2e3d
00000190: 68bd 883b c9a8 4c3c 9f87 37bd 6a90 bfbc
000001a0: 8485 59bd efb2 d93a 8208 b73c 741d e83c
000001b0: e191 833c 800d 24bd 4791 743d 2d3b 70bd
000001c0: dd9a 4a3d a9a3 40bd d6e9 fc3c 72c9 0c3d
000001d0: 34eb 3c3b 2107 b7bc e2a3 023c 8e8d 3c3d
000001e0: 71c9 b6bb 6ac6 52bd 9c29 6fbd 6427 6cbd
000001f0: e694 873b 5d89 48bc 30e4 983c 2c85 33bd
00000200: 08a7 443d 8210 fdbc 5025 96bc 3e0b c6bb
00000210: a3f7 193d 7c73 813d 34c8 fcbc ff8c 453d
00000220: d89d 81bd 31e2 5e3d 0ca5 1ebd 348f a1bc
00000230: 1060 4abd 5b7f 3cbd 78fd 99bc 0a47 0c3b
00000240: 7943 debc ac0d bcbc a25b d4b9 067a babc
00000250: 12c5 143d e8e0 e73c cc67 343d 142a 29bd
00000260: d467 b73c a0cb 623d cbfe 103c 305c debc
00000270: 5abf 1ebc 9fca b2bc e14e 023d 0015 063d
00000280: 9692 11bb aa01 c3ba d90e 7d3d e6c1 51bb
00000290: 51bc 363d a953 42bc 2db9 3fbc d7bd c9bc
000002a0: 77f0 c3bc b54c 14bd 329f 883c 8c75 82ba
000002b0: 814a 4aba f4f4 31bd 2835 a13c 6a27 723d
000002c0: ed60 fabc 7cde 823c 7c8c 29bd 83b1 c3bd
000002d0: d4c6 60bd 649a 3abd ec5e 1c3d 3aa5 6f3c
000002e0: 6c91 0fbc ff3f 083d 759e 6a3b 0908 82bd
000002f0: 4b6b 29bc 26a0 4bbd 02dc c63b 8e8d 4c3d
00000300: 5c7a 153d 87db 51bd 3e02 17bd 4d89 2c3c
00000310: 3704 00bc 1eef 0e3d 6696 1cbd 6bc2 9fbb
00000320: fa40 60bc 3908 efbc 224e b1bc 7f1f a3bd
00000330: 5142 28bd ca01 903d 22a3 d3bc b77a ebbc
00000340: d21b febc 643f 6dbd 984b e23a 4f12 b23c
00000350: 902a 09bd bad7 833d 8b16 023c 7bdb 4e3d
00000360: 85f4 9bbd f72e bb3c f23f 0b3c beda efbc
00000370: f745 093d feef 73bd e1e0 133b a147 e9bc
00000380: e84a 4d3d fe05 0e3d c412 4c3d 4111 55bd
00000390: 89cd eabb 12f7 85bc 016e 453d 718a 44bc
000003a0: 039a 38bd b503 703d 1a2f d7bc 7c31 6d3d
000003b0: b493 c83c 9a95 4f3d 04e5 3c3d b437 02bd
000003c0: a736 343d 37a7 85bc 1669 013d ad24 063d
000003d0: 002c 623d 0a7f 7ebc e444 4f3d 69b3 4ebd
000003e0: e761 383c 541f 5dbd be6c 1cbd 4e5f 113b
000003f0: b970 61bd 4420 2f3d 41a6 803c 6b2b 323c

bias f4 [256]
0.06537477 0.03224123 0.015019966 -0.019131882 -0.05254527 0.05086596 0.034552474 -0.043243375
0.059054326 0.038166605 0.018992702 0.0671326 -0.024702279 -0.026833346 0.02430124 0.011100844
-0.02154659 0.028863886 -0.026769299 0.069962785 0.0117316535 0.017593876 -0.021951342 -0.010334206
0.03530316 0.013448318 0.051228225 -0.016764376 0.018153435 0.050138783 -0.0115383 -0.050528787
0.0058185593 0.02075424 0.05535629 0.025170393 0.008238205 0.054164227 -0.020112412 0.012833753
0.013509598 -0.030161703 0.07235871 0.031552535 0.0064084874 0.0063478476 -0.0038081722 0.036081642
-0.02952546 0.023735283 0.0051928465 0.02328102 0.0261717 -0.009761275 -0.034032367 -0.022565471
-0.044428375 0.010620798 0.028499361 0.052972406 -0.022762315 0.018425064 0.060169324 0.030832445
-0.06013963 0.042619847 -0.04659216 -0.0035228357 0.0313832 -0.05689107 0.009441351 0.015113623
0.030607183 0.06254851 0.059718728 -0.049363136 0.0022654883 0.0646562 0.02890614 0.028715475
0.06648614 -0.025534304 0.067205034 -0.041411337 -0.045107875 0.03331557 0.03455941 -0.017916976
0.041791532 -0.021774016 -0.044410344 -0.033907734 0.043453235 -0.01483144 -0.04388319 0.053575236
0.045220073 0.0002658729 -0.025837744 0.026463754 0.016959887 0.0005890206 -0.034162555 -0.02514408
-0.00030401954 -0.03150748 -0.04719263 -0.006991968 0.032022506 -0.030033797 0.018628098 0.04901875
0.03284056 0.06301751 -0.04031753 -0.03576205 -0.040933583 0.03084492 -0.04662007 0.0035445602
-0.003499508 0.020876788 -0.030654468 -0.03864629 0.052197713 -0.018820675 -0.021504983 -0.055629812
0.052362185 0.06035873 0.010308462 0.039575495 0.06040273 -0.02719877 -0.028451635 -0.033946864
0.035872065 0.05717236 -0.017587006 -0.003976545 0.032072455 0.0044093807 -0.049752366 0.040647566
-0.032222487 -0.020462036 -0.012481772 0.06759228 -0.023228172 0.07211333 0.031141879 0.044959176
-0.024553638 -0.01742013 -0.032201026 -0.033189308 -0.043851133 -0.010465903 0.06286637 0.058651086
0.049000725 -0.01428311 0.025527673 0.0494337 -0.03817203 0.04592788 0.0020869535 0.0054774494
-0.03896321 -0.032709558 0.04091993 0.055438906 0.05531162 0.020374855 -0.046773873 -0.02788096
0.037413735 0.045072407 0.06020339 0.06769767 0.039262574 -0.012586035 -0.04222068 0.021765579
0.036511075 -0.048337843 0.0134024685 -0.05117453 0.05144251 -0.021274315 0.025671419 0.052101843
-0.0043196008 0.004090108 0.029022489 0.026598474 -0.0044570556 0.032530658 -0.038304467 -0.039576076
0.054271434 -0.039142184 0.010306682 0.052187167 0.0010688478 0.0073767486 0.041130364 -0.007299924
-0.039825484 -0.027185336 0.023139162 -0.0013759034 -0.053178184 -0.044169996 0.002558587 0.028968072
0.018130505 0.04731556 0.004058832 -0.051077113 0.06914934 0.047020312 -0.06084059 -0.055467423
-0.024910022 0.059858486 0.027218064 0.049068432 -0.04242713 0.0054096463 0.060052637 0.01744984
-0.04800881 0.0023537916 0.07204941 -0.02203728 -0.04681255 0.02615237 -0.028076265 0.009439721
0.049517825 -0.018338492 0.01578114 -0.048647698 0.007329239 0.055435278 -0.011391527 0.04658201
-0.010412391 -0.03605457 0.006330814 -0.040093288 -0.040966034 -0.02083597 0.04369041 -0.009758843
00000000: 35e3 853d 610f 043d 4e16 763c 77ba 9cbc
00000010: b639 57bd d358 503d e586 0d3d f71f 31bd
00000020: f3e2 713d 9654 1c3d 9596 9b3c d17c 893d
00000030: 6f5c cabc 9bd1 dbbc 6513 c73c 50e0 353c
00000040: 7982 b0bc f573 ec3c 4a4b dbbc a648 8f3d
00000050: 1f36 403c 0821 903c 4dd3 b3bc cd50 29bc
00000060: 0c9a 103d 5556 5c3c b0d4 513d 7255 89bc
00000070: 83b6 943c 535e 4d3d 230b 3dbc 46f7 4ebd
00000080: 9da9 be3b cc04 aa3c 47bd 623d 2432 ce3c
00000090: 89f9 063c 4fdb 5d3d c9c2 a4bc a944 523c
000000a0: 5c57 5d3c ad15 f7bc ce30 943d 3b3d 013d
000000b0: 4afe d13b 9b01 d03b 8792 79bb 58ca 133d
000000c0: 61df f1bc 7f70 c23c c128 aa3b d6b7 be3c
000000d0: 0866 d63c c1ed 1fbc 8665 0bbd 39db b8bc
000000e0: 87fa 35bd db02 2e3c 7e77 e93c 98f9 583d
000000f0: 0978 babc 29f0 963c 1c74 763d 5394 fc3c
00000100: f954 76bd 2692 2e3d 6cd7 3ebd 60df 66bb
00000110: ac8b 003d 9c06 69bd e5af 1a3c 219f 773c
00000120: eabb fa3c 6f19 803d a09b 743d 0031 4abd
00000130: 9678 143b 786a 843d 92cc ec3c b73c eb3c
00000140: e329 883d 512d d1bc cba2 893d ef9e 29bd
00000150: 09c3 38bd e875 083d 2b8e 0d3d 9fc6 92bc
00000160: 992d 2b3d 6c5f b2bc 9fe7 35bd d6e2 0abd
00000170: 05fc 313d 91ff 72bc dcbe 33bd b571 5b3d
00000180: af38 393d db64 8b39 ada9 d3bc 84ca d83c
00000190: 76ef 8a3c 8168 1a3a 09ee 0bbd f5fa cdbc
000001a0: d064 9fb9 fd0d 01bd 0f4d 41bd e11c e5bb
000001b0: 082a 033d 7009 f6bc f499 983c e3c7 483d
000001c0: d383 063d 530f 813d ff23 25bd 3a7b 12bd
000001d0: f9a9 27bd 7cae fc3c b0f4 3ebd da4b 683b
000001e0: 0058 65bb cc05 ab3c 141f fbbc 924b 1ebd
000001f0: 45cd 553d d12d 9abc 382b b0bc 16dc 63bd
00000200: bb79 563d b73a 773d d3e4 283c ea19 223d
00000210: da68 773d f4cf debc 6713 e9bc de0b 0bbd
00000220: 96ee 123d 912d 6a3d a012 90bc ad4d 82bb
00000230: 685e 033d 917c 903b 23c9 4bbd 107e 263d
00000240: bafb 03bd 00a0 a7bc 5980 4cbc d26d 8a3d
00000250: 0249 bebc 27b0 933d 411d ff3c 1d27 383d
00000260: b624 c9bc a9b4 8ebc 39e5 03bd 83f1 07bd
00000270: 3f9d 33bd 2e79 2bbc 15c0 803d 1f3c 703d
00000280: fcb4 483d b503 6abc 691f d13c fe7a 4a3d
00000290: 465a 1cbd df1e 3c3d 45c5 083b 2d7c b33b
000002a0: e397 1fbd 75fa 05bd a89b 273d e813 633d
000002b0: 708e 623d 2be9 a63c f695 3fbd 9c66 e4bc
000002c0: 253f 193d d89d 383d d497 763d 13a5 8a3d
000002d0: cbd1 203d a835 4ebc 97ef 2cbd ba4d b23c
000002e0: a38c 153d e7fd 45bd 0796 5b3c 629c 51bd
000002f0: 62b5 523d 7947 aebc de4c d23c be68 553d
00000300: 708b 8dbb 5006 863b 92c0 ed3c 0be5 d93c
00000310: 7e0c 92bb de3e 053d 25e5 1cbd 861a 22bd
00000320: b94b 5e3d 8e53 20bd 5cdd 283c 36c2 553d
00000330: 9518 8c3a a7b8 f13b 5078 283d 3334 efbb
00000340: 0c20 23bd c8b3 debc 578e bd3c a857 b4ba
00000350: 5ed1 59bd 99eb 34bd f7ad 273b 734e ed3c
00000360: 6d86 943c f6cd 413d f3ff 843b 3c36 51bd
00000370: 2b9e 8d3d 5f98 403d fc33 79bd cf31 63bd
00000380: 1a10 ccbc 2c2e 753d 6bf8 de3c fbfb 483d
00000390: 12c8 2dbd 6743 b13b c1f9 753d f8f2 8e3c
000003a0: e3a4 44bd 1242 1a3b a48e 933d 8787 b4bc
000003b0: 84be 3fbd 7f3d d63c 3200 e6bc 0fa9 1a3c
000003c0: 34d3 4a3d 9b3a 96bc 7347 813c cf42 47bd
000003d0: 1d2a f03b 1a10 633d 87a3 3abc c7cc 3e3d
000003e0: bc98 2abc f5ad 13bd b872 cf3b dc38 24bd
000003f0: 00cc 27bd 32b0 aabc b7f4 323d 8ee3 1fbc

weight f4 [256, 256]
-0.031300627 -0.0179761 0.016896237 0.047705315 0.025488745 -0.0560548 -0.034300245 0.045067985
0.017288081 -0.027205613 -0.012710755 -0.024908474 -0.008703431 0.069764696 -0.035380933 -0.015513653
0.06187024 -0.060223196 -0.07867781 -0.028857615 0.013217729 -0.012015812 0.052490897 0.0038208512
0.035303056 -0.012706398 -0.05374952 -0.044600092 0.054058086 -0.047423124 0.063141346 0.026679743
-0.05294256 -0.037995096 0.072075464 -0.06414144 -0.015415823 -0.062216934 0.024997452 0.059948105
0.031721417 0.0604252 0.072403766 -0.002563418 -0.04084772 0.06308281 0.0065674162 0.021657854
0.04224639 0.03308832 0.043957047 -0.0085844295 -0.012450151 0.004480128 0.05362075 0.034223646
-0.031480365 0.04175085 0.024640324 0.05398792 -0.018478524 0.02391702 -0.03152947 0.0038520643
-0.076825865 -0.05910545 0.062737636 0.0035968476 -0.011711771 0.05540032 0.037242677 -0.008191349
-0.0060209143 0.02623734 0.060110547 -0.071449995 0.0075829634 -0.036805194 0.062382665 0.07228701
0.04902486 0.033916637 0.038482502 0.072161004 0.027625704 -0.052147042 -0.029175479 -0.035985574
0.023405649 0.008435684 0.024346704 -0.036613718 -0.0025836548 0.058977872 -0.029982548 0.014799529
0.025077293 0.068986915 0.06628785 0.0018638475 0.051715616 -0.03134104 -0.074869856 -0.006324564
0.05194464 0.043506473 -0.028580667 -0.054916818 0.04729386 -0.05888392 -0.066839926 0.034427155
-0.012040615 -0.0036894674 0.015531264 -0.035943497 0.02872956 0.027732182 0.036448758 0.057808146
0.06421634 0.02262875 -0.023995064 0.0176107 -0.036159325 0.011914416 0.06488374 -0.016953371
-0.020777112 0.020818554 -0.03706948 -0.026865045 -0.026275473 -0.0140533 0.032356445 -0.020242846
0.031563915 0.045335703 -0.047365658 0.0022631355 0.039219588 0.0653812 -0.07561754 0.08083818
-0.029756153 -0.036882926 0.04334792 0.0075822454 -0.043023415 0.0054768785 -0.029899362 0.07100061
-0.02389573 0.026662927 -0.06635605 -0.039335933 0.046661794 -0.053554982 0.05136635 -0.013043696
-0.008573979 0.051820073 0.019577488 0.052070417 -0.054957338 0.033779766 0.007099205 0.0036674018
-0.052449603 0.054769494 0.032747544 -0.06181109 0.042456977 0.033891145 -0.049256016 0.023917973
0.07205485 0.034973327 0.015207276 -0.045168087 -0.05599925 -0.035593905 -0.020870052 -0.016349707
-0.05801974 0.010013225 -0.0048795394 0.03524188 0.022799052 0.021583218 -0.033713095 0.028120428
-0.0031508529 -0.032618485 -0.050424352 -0.049470264 -0.013210809 0.00785403 0.065014355 0.030925114
-0.04967779 -0.023640867 -0.043425653 -0.048210673 0.019550703 0.035597567 -0.021582987 0.0013902293
0.012663345 -0.013219009 0.020910392 0.026097652 0.028915705 -0.016182432 0.022246545 -0.030171137
-0.01304942 -0.0327953 0.018928267 0.019276986 0.05756458 0.033164956 0.026237898 0.0299017
0.046125595 -0.054901548 -0.025228623 0.0035421348 -0.016125638 -0.0094224615 -0.017702494 -0.028411275
-0.037950292 0.045215987 0.0231823 0.058758616 0.051434275 0.015049285 0.04808646 0.040965043
-0.05357554 0.042583324 -0.03085512 -0.005331849 -0.047691233 -0.0051386743 -0.026482442 -0.055625692
-0.021003291 -0.0319098 -0.06120063 -0.0020636907 2.7777762e-05 0.012513275 0.061353683 -0.054089196
00000000: 1635 00bd 9d42 93bc fa69 8a3c a666 433d
00000010: c6cd d03c b899 65bd 6a7e 0cbd 3599 383d
00000020: bc9f 8d3c 4ede debc c540 50bc db0c ccbc
00000030: d698 0ebc cbe0 8e3d 99eb 10bd fa2c 7ebc
00000040: a66b 7d3d 99ac 76bd d521 a1bd ce66 ecbc
00000050: 2c8f 583c f8dd 44bc b200 573d 3f67 7a3b
00000060: f099 103d 7f2e 50bc 7528 5cbd 96ae 36bd
00000070: 036c 5d3d c03e 42bd 4050 813d 7a8f da3c
00000080: 4cda 58bd bfa0 1bbd 4d9c 933d 965c 83bd
00000090: a692 7cbc 2fd7 7ebd 75c7 cc3c 258c 753d
000000a0: 51ee 013d 6a80 773d 6d48 943d 04ff 27bb
000000b0: f04f 27bd 8f31 813d 7b33 d73b d06b b13c
000000c0: 8d0a 2d3d 9e87 073d 4e0c 343d b5a5 0cbc
000000d0: b8fb 4bbc 0ace 923b 6ea1 5b3d 182e 0c3d
000000e0: 8ef1 00bd f002 2b3d 81da c93c 7022 5d3d
000000f0: 4660 97bc a0ed c33c 0c25 01bd ea72 7c3b
00000100: e156 9dbd 8e18 72bd 977c 803d 17b9 6b3b
00000110: bae2 3fbc 72eb 623d c78b 183d 0235 06bc
00000120: 174b c5bb b1ef d63c 7a36 763d 6054 92bd
00000130: 827a f83b 0bc1 16bd f784 7f3d 360b 943d
00000140: 4bce 483d 2cec 0a3d d49f 1d3d 26c9 933d
00000150: 4d4f e23c 2398 55bd 6a01 efbc 9c65 13bd
00000160: 34bd bf3c d335 0a3c bd72 c73c 44f8 15bd
00000170: 8952 29bb c892 713d f69d f5bc b979 723c
00000180: e56e cd3c 0349 8d3d edc1 873d 584c f43a
00000190: c1d3 533d 765f 00bd 5e55 99bd 4a3e cfbb
000001a0: e7c3 543d d833 323d 0122 eabc 75f0 60bd
000001b0: 35b7 413d 4430 71bd 5fe3 88bd 7d03 0d3d
000001c0: 0046 45bc feca 71bb d876 7e3c 7d39 13bd
000001d0: 415a eb3c 9a2e e33c 4b4b 153d 3cc8 6c3d
000001e0: db83 833d ee5f b93c 4c91 c4bc 5144 903c
000001f0: cd1b 14bd af34 433c c4e1 843d cce1 8abc
00000200: c334 aabc ac8b aa3c 2bd6 17bd 1514 dcbc
00000210: a93f d7bc d03f 66bc 3188 043d 53d4 a5bc
00000220: 2a49 013d eeb1 393d 7e02 42bd 1d51 143b
00000230: b8a4 203d 94e6 853d 5edd 9abd 7d8e a53d
00000240: 2dc3 f3bc 8d12 17bd 978d 313d 7c74 f83b
00000250: 5239 30bd 6377 b33b 82ef f4bc c568 913d
00000260: fac0 c3bc 366c da3c aee5 87bd b71e 21bd
00000270: 7020 3f3d 785c 5bbd 8665 523d 3ab5 55bc
00000280: e079 0cbc 4941 543d f860 a03c ca47 553d
00000290: f21a 61bd a75c 0a3d 73a0 e83b cb58 703b
000002a0: 65d5 56bd fa55 603d 4a22 063d a02d 7dbd
000002b0: 5ee7 2d3d 71d1 0a3d adc0 49bd a0ef c33c
000002c0: 7e91 933d 3140 0f3d f027 793c 2c02 39bd
000002d0: 785f 65bd eaca 11bd acf7 aabc d2ef 85bc
000002e0: 1ba6 6dbd 820e 243c 8be4 9fbb ca59 103d
000002f0: 14c5 ba3c 4acf b03c be16 0abd d05c e63c
00000300: 8a7e 4ebb f69a 05bd c489 4ebd 55a1 4abd
00000310: 2672 58bc 30ae 003c 3f26 853d aa56 fd3c
00000320: f07a 4bbd 7eaa c1bc 19df 31bd 8e78 45bd
00000330: cc28 a03c c1ce 113d cece b0bc 5b38 b63a
00000340: eb79 4f3c 8b94 58bc 454c ab3c beca d53c
00000350: a1e0 ec3c 0591 84bc 633e b63c 7629 f7bc
00000360: 3ccd 55bc 5d54 06bd 740f 9b3c c5ea 9d3c
00000370: d6c8 6b3d fad7 073d dcf0 d63c 69f4 f43c
00000380: 31ee 3c3d 72e0 60bd 42ac cebc 2923 683b
00000390: ea19 84bc ab60 1abc d204 91bc c3be e8bc
000003a0: c471 1bbd 6634 393d cfe8 bd3c e0ac 703d
000003b0: bfac 523d 4791 763c 4ff6 443d f6ca 273d
000003c0: 0772 5bbd da6b 2e3d e0c3 fcbc cbb6 aebb
000003d0: e257 43bd 5362 a8bb b5f1 d8bc c4d7 63bd
000003e0: 180f acbc dab3 02bd 83ad 7abd fc3e 07bb
000003f0: 4a04 e937 7b04 4d3c 004e 7b3d a28c 5dbd

bias f4 [256]
-0.028360603 -0.029463343 -0.060779355 -0.018152678 -0.0042282133 -0.0061476924 0.04956612 0.009947457
0.029296238 0.01183895 -0.003950702 -0.042270385 -0.031241095 0.005141128 0.06057581 -0.045220904
0.0048266025 0.047137637 0.037900563 0.034554094 -0.050698318 0.0152590545 0.030969234 0.041426558
-0.015490637 -0.056241773 0.02639171 -0.04922729 0.008818424 -0.05316221 -0.04527104 -0.017977064
0.03232406 0.052285865 -0.024754679 0.029935384 -0.02091426 -0.053433567 0.006665668 -0.056268927
-0.028856905 0.039874706 0.009545944 -0.04280613 0.0077531305 0.03891831 0.054598443 -0.028967269
0.04000729 0.00494257 0.053422846 0.03117019 -0.00038983327 -0.033521876 -0.021498786 -0.033993926
-0.048195973 0.058818724 -0.009897673 -0.01818063 0.045216627 0.0069157314 0.0533934 -0.036245864
-0.011316711 -0.03811862 0.040181205 0.051481064 0.058989417 -0.042836007 -0.045952357 -0.033368535
0.032661784 -0.036671788 -0.0021622176 -0.014341804 0.017343715 -0.052306864 -0.0334873 0.052893966
0.054468982 0.008509743 -0.022862531 0.019127779 0.035181627 -0.035492767 0.016816907 0.04374176
0.061289586 0.054563373 -0.041007947 -0.04223289 0.015362468 0.034154903 0.06292608 -0.009433818
-0.030698873 -0.009018568 0.006959352 -0.017478677 -0.018513255 0.04483194 -0.03239218 -0.05699467
0.049331512 0.030097926 -0.03839877 -0.032669026 0.015814647 -0.04717744 0.043496482 -0.060711812
0.0265453 0.05756786 0.013003172 0.05678618 -0.04714091 -0.027045395 0.058858525 -0.03872439
-0.0393301 -0.008969608 0.02317935 0.027801339 0.006664705 -0.00010235324 -0.0027866003 -0.005590628
-0.024379538 0.02398175 0.018200133 -0.035403177 0.018560568 -0.02824386 0.051936667 -0.017024348
-0.035139635 -0.049058087 0.0021458576 0.044359356 -0.052399844 -0.03461374 0.039716132 0.06794637
-0.004660026 -0.02371602 -0.03949959 0.060439397 -0.014681952 0.023541622 0.034687683 0.014393043
0.030754516 -0.040801607 -0.021763373 0.059269447 -0.03587778 -0.01745992 0.013513384 -0.055970885
0.040819515 0.02537037 0.047911096 -0.051612165 0.0037512127 -0.0028869794 0.010544017 0.06877969
-0.06577463 0.015262807 0.0027142912 -0.022317756 -0.0126734525 -0.0021577983 0.043422956 0.028557979
-0.033196483 -0.038960293 0.026373273 -0.023032913 0.03486432 0.008141869 0.023713723 -0.001360253
0.049941592 -0.036758397 -0.041127026 0.0032498527 0.045538712 -0.0065349867 -0.051460706 -0.03377854
0.001223571 0.029310405 -0.04502949 0.0385481 0.035370376 -0.034219462 0.008227238 -0.030557528
-0.039767057 -0.04584964 -0.03537584 0.022388836 0.019410336 0.014498243 0.037017506 -0.0018530738
0.021597765 -0.027446244 0.050596036 0.0041527315 0.03282263 -0.038824297 -0.0270745 -0.023583006
0.001155422 0.019170744 0.04020642 -0.025525037 -0.025335154 0.03701895 -0.061137527 -0.043876994
0.06329427 -0.0005974187 0.01286793 -0.034145985 -0.03216109 0.064375855 0.019852215 0.040935837
0.0383283 -0.0057127667 0.039207786 0.06800306 0.012162976 0.058415238 -0.042018667 -0.009307582
-0.0017000127 0.04439789 -0.03462626 -0.024072386 -0.012638567 -0.012971639 0.037020955 0.006001442
0.010855099 -0.063297704 0.038288336 -0.005878256 0.002904054 -0.0067509967 0.03003937 0.026751243
00000000: 7f54 e8bc 1c5d f1bc c6f3 78bd edb4 94bc
00000010: d38c 8abb 9572 c9bb d805 4b3d a9fa 223c
00000020: aafe ef3c 28f8 413c e474 81bb b623 2dbd
00000030: 53ed ffbc e876 a83b 571e 783d 8e39 39bd
00000040: 7a28 9e3b 6513 413d 9f3d 1b3d 9888 0d3d
00000050: 0aa9 4fbd 1d01 7a3c 31b3 fd3c e5ae 293d
00000060: 71cc 7dbc c65d 66bd 6d33 d83c 8ea2 49bd
00000070: 277b 103c 9ec0 59bd 206e 39bd a344 93bc
00000080: 3c66 043d b429 563d 53ca cabc 0d3b f53c
00000090: 6254 abbc 28dd 5abd ad6b da3b 3f7a 66bd
000000a0: 5165 ecbc a953 233d 9766 1c3c 7b55 2fbd
000000b0: f90d fe3b ce68 1f3d 9ea2 5f3d c44c edbc
000000c0: afde 233d 48f5 a13b ead1 5a3d a058 ff3c
000000d0: 8962 ccb9 3c4e 09bd 391e b0bc 373d 0bbd
000000e0: 2469 45bd e7eb 703d d929 22bc 8bef 94bc
000000f0: 1235 393d 5c9d e23b 0ab3 5a3d 8b76 14bd
00000100: ba69 39bc 4522 1cbd 0c95 243d cfdd 523d
00000110: e39e 713d cf74 2fbd 8a38 3cbd 72ad 08bd
00000120: 5dc8 053d 2835 16bd feb3 0dbb e3f9 6abc
00000130: 6814 8e3c b93f 56bd fb29 09bd 58a7 583d
00000140: de1a 5f3d 736c 0b3c 344a bbbc dcb1 9c3c
00000150: 9c1a 103d dd60 11bd 9cc3 893c 8f2a 333d
00000160: ca0a 7b3d d87d 5f3d f3f7 27bd 65fc 2cbd
00000170: dcb2 7b3c 03e6 0b3d 63df 803d 4d90 1abc
00000180: 347c fbbc 9ec2 13bc 470b e43b 712f 8fbc
00000190: 1ca9 97bc b2a1 373d aaad 04bd 3e73 69bd
000001a0: d70f 4a3d ed8f f63c 0748 1dbd f5cf 05bd
000001b0: b88d 813c 223d 41bd 5e29 323d f3ac 78bd
000001c0: 8775 d93c 47cc 6b3d 420b 553c a098 683d
000001d0: d416 41bd 4e8e ddbc a315 713d 779d 1ebd
000001e0: 9918 21bd 43f5 12bc 9fe2 bd3c a2bf e33c
000001f0: 9963 da3b 7aa6 d6b8 659f 36bb 9631 b7bb
00000200: 99b7 c7bc 6075 c43c 7218 953c ec02 11bd
00000210: 550c 983c ab5f e7bc 8bbb 543d a576 8bbc
00000220: 94ee 0fbd 22f1 48bd 84a1 0c3b 28b2 353d
00000230: 38a1 56bd 23c7 0dbd 62ad 223d 7727 8b3d
00000240: 22b3 98bb 1948 c2bc 52ca 21bd 4d8f 773d
00000250: 928c 70bc 5cda c03c ac14 0e3d ccd0 6b3c
00000260: e5f0 fb3c 961f 27bd 1a49 b2bc 85c4 723d
00000270: 94f4 12bd 1b08 8fbc 3e67 5d3c ba41 65bd
00000280: 5d32 273d 86d5 cf3c 6d3e 443d 4767 53bd
00000290: e8d6 753b 7a33 3dbb d0c0 2c3c 5edc 8c3d
000002a0: d9b4 86bd da10 7a3c 40e2 313b bad3 b6bc
000002b0: 50a4 4fbc d969 0dbb 45dc 313d 6cf2 e93c
000002c0: 09f9 07bd d494 1fbd c30c d83c 85af bcbc
000002d0: e4cd 0e3d 7965 053c 4843 c23c 844a b2ba
000002e0: 8e8f 4c3d f98f 16bd d074 28bd 7bfb 543b
000002f0: cd86 3a3d 7123 d6bb 76c8 52bd 5e5b 0abd
00000300: 3b60 a03a 601c f03c d870 38bd 9de4 1d3d
00000310: 87e0 103d b529 0cbd 8acb 063c c853 fabc
00000320: c8e2 22bd d5cc 3bbd 42e6 10bd cb68 b73c
00000330: 6d02 9f3c 0a8a 6d3c ab9f 173d d7e2 f2ba
00000340: cced b03c f2d6 e0bc ca3d 4f3d a313 883b
00000350: 0671 063d 3a06 1fbd 58cb ddbc 2631 c1bc
00000360: 8771 973a f70b 9d3c 7daf 243d e219 d1bc
00000370: ab8b cfbc 2fa1 173d 586b 7abd 5db8 33bd
00000380: 6da0 813d 179c 1cba 03d4 523c a9dc 0bbd
00000390: 59bb 03bd 7dd7 833d 1da1 a23c 56ac 273d
000003a0: 23fe 1c3d 2932 bbbb 5898 203d 3045 8b3d
000003b0: 3847 473c d144 6f3d c41b 2cbd d47e 18bc
000003c0: f6d2 deba 90da 353d 44d4 0dbd 7433 c5bc
000003d0: fe11 4fbc ff86 54bc 49a3 173d bfa7 c43b
000003e0: 96d9 313c 3aa2 81bd 3bd4 1c3d 639e c0bb
000003f0: f151 3e3b 7737 ddbb 2015 f63c 6c25 db3c

weight f4 [2, 256]
-0.043759186 0.051198352 0.05130052 0.016954558 -0.0372435 0.067413166 0.024308529 -0.051689602
-0.017581455 -0.06208992 -0.045574073 -0.03419299 0.08952489 -0.04287726 0.042306572 0.008267692
0.047811635 0.061180305 -0.039392594 0.03293451 0.11970953 -0.042725716 0.039710123 -0.040867273
0.074241124 0.039366238 -0.018319752 -0.02364023 -0.05513122 0.0544722 -0.020139096 -0.038449652
-0.050577525 0.012272929 0.12004346 -0.062691 0.042303182 -0.051658686 0.009743433 0.04272841
0.0013442873 -0.050152358 -0.06809435 0.03667601 0.015991598 -0.046996333 0.0076769637 -0.015147685
0.031312995 0.021161664 -0.03314972 -0.04119752 0.040644396 -0.057680372 0.030524973 0.023621393
0.0055745956 -0.013385358 -0.035586398 0.054682437 -0.024475563 -0.048944835 0.055963855 0.054404687
-0.047737088 0.031569768 -0.110602096 -0.0015536867 -0.0066609676 -0.07596004 0.043515496 0.037569616
-0.03359433 0.02000337 -0.0007084123 0.05607855 -0.06619316 0.023781495 0.016148904 -0.053016555
0.010518629 0.028672714 -0.05408603 0.05966807 -0.055197816 0.056669913 0.03125869 -0.016895635
0.04483537 0.013772284 0.016077945 -0.0034309386 0.018447742 -0.06588525 0.0050392244 0.020771906
-0.01346495 0.024072211 0.056572128 0.08032045 0.033711296 0.00030691313 -0.04837794 0.03872194
-0.07721044 -0.013370831 0.038029555 -0.05581744 -0.06605368 0.03949091 0.024914598 0.021869777
-0.029651223 -0.042869005 -0.036167305 -0.020347506 -0.05380706 -0.0046143085 -0.00889908 -0.012528354
0.043503262 0.030990176 0.068355314 0.06687739 0.05831654 -0.05584003 0.07803131 -0.03342156
0.04060495 -0.03258919 0.0025674372 0.026474765 0.07232252 0.08587018 0.011795496 -0.004287954
0.059041362 -0.050626215 0.051747277 -0.0122592375 -0.020193093 -0.022871643 -0.019168945 -0.006441309
0.071168706 -0.049926173 0.05912883 0.037786033 0.060883977 0.013760306 0.07773328 -0.0037794176
-0.071031444 0.037447874 -0.030527707 0.028654348 -0.066432394 0.030016338 -0.027029129 0.04284445
0.018333694 -0.018867357 -0.04551866 0.03696433 -0.07974217 0.003436885 0.020488787 0.03140839
-0.09079002 0.061092 -0.044643722 -0.04437881 -0.006430827 0.010654936 -0.060861368 -0.062100794
0.02980575 -0.023562096 -0.07377735 0.04986648 0.045252893 -0.08300368 0.024632286 0.06472147
-0.05951761 -0.021006387 0.035686996 0.004229043 0.025013003 -0.07466939 0.0502192 -0.019921603
-0.05353018 0.036293294 0.030141205 -0.050497215 -0.030565744 -0.0130642215 -0.03842782 -0.18469378
-0.03648922 0.049013205 0.03114999 0.07560608 -0.08573478 -0.0740556 -0.077887036 -0.060340106
0.015069567 -0.0055407668 -0.0039966647 0.0009271512 -0.024756243 -0.057508487 -0.057293177 0.024521952
0.053615056 0.06215783 -0.069064066 -0.06548918 0.03092683 -0.055534594 0.0003066808 0.0607569
0.07733241 0.04498637 0.062191084 0.03504822 0.049999006 0.04712535 -0.04260572 0.037599567
0.070834406 -0.07532535 0.039287955 0.012170275 -0.08138169 0.01754565 -0.04978184 0.025444424
0.030076064 -0.016478132 -0.016919002 -0.053228963 0.05009972 0.008423863 0.03470236 0.027084934
-0.063049376 -0.02450824 -0.017131794 -0.078236 -0.048907686 0.073357895 -0.062101092 0.02472544
00000000: d53c 33bd 5db5 513d 7e20 523d 49e4 8a3c
00000010: a48c 18bd ea0f 8a3d ae22 c73c 7ab8 53bd
00000020: fc06 90bc 0052 7ebd e1ab 3abd f30d 0cbd
00000030: d358 b73d 11a0 2fbd a849 2d3d 3775 073c
00000040: 22d6 433d 3398 7a3d 215a 21bd 56e6 063d
00000050: 452a f53d 2901 2fbd 15a7 223d 7164 27bd
00000060: bb0b 983d 7e3e 213d 4e13 96bc 28a9 c1bc
00000070: 46d1 61bd 3e1e 5f3d bffa a4bc 627d 1dbd
00000080: 612a 4fbd 6514 493c 58d9 f53d 2464 80bd
00000090: 1a46 2d3d 0f98 53bd eca2 1f3c fc03 2f3d
000000a0: cc32 b03a 8f6c 4dbd 0d75 8bbd 9539 163d
000000b0: d000 833c 3a7f 40bd 0a8f fb3b ff2d 78bc
000000c0: 0e42 003d 3a5b ad3c 00c8 07bd bbbe 28bd
000000d0: bd7a 263d 4142 6cbd 820f fa3c a781 c13c
000000e0: 19ab b63b 434e 5bbc 0bc3 11bd b1fa 5f3d
000000f0: fa80 c8bc 617a 48bd 5b3a 653d 73d7 5e3d
00000100: f787 43bd 4d4f 013d 5a83 e2bd 13a5 cbba
00000110: 3f44 dabb f090 9bbd 4e3d 323d 99e2 193d
00000120: 359a 09bd 1bde a33c bfb4 39ba 9fb2 653d
00000130: 4890 87bd 69d1 c23c b54a 843c e327 59bd
00000140: 5456 2c3c 0ae3 ea3c 5089 5dbd 8266 743d
00000150: 1b17 62bd b61e 683d 1d09 003d b768 8abc
00000160: 4ba5 373d 25a5 613c e5b5 833c 99d9 60bb
00000170: b81f 973c d9ee 86bd 1420 a53b d829 aa3c
00000180: 189c 5cbc 1633 c53c 2db8 673d 0c7f a43d
00000190: db14 0a3d 2fe9 a039 f227 46bd e69a 1e3d
000001a0: 8220 9ebd 5411 5bbc e1c4 1b3d d4a0 64bd
000001b0: 2747 87bd 38c1 213d b319 cc3c 3f28 b33c
000001c0: 1fe7 f2bc 6997 2fbd 2b24 14bd d0af a6bc
000001d0: cb64 5cbd a033 97bb 72cd 11bc ba43 4dbc
000001e0: 7a30 323d 1cdf fd3c dffd 8b3d 03f7 883d
000001f0: 53dd 6e3d 84b8 64bd e1ce 9f3d 0ce5 08bd
00000200: 6051 263d 3e7c 05bd 7342 283b 9be1 d83c
00000210: d41d 943d b4dc af3d e541 413c f781 8cbb
00000220: 5bd5 713d 6f5d 4fbd f4f4 533d f8da 48bc
00000230: fc6b a5bc 505d bbbc 3108 9dbc 9e11 d3bb
00000240: e6c0 913d 637f 4cbd 1231 723d 87c5 1a3d
00000250: 7a61 793d e872 613c a032 9f3d 1bb0 77bb
00000260: ef78 91bd f162 193d 3e15 fabc 86bc ea3c
00000270: b50d 88bd d3e4 f53c 316c ddbc a97d 2f3d
00000280: 8b30 963c b78f 9abc c671 3abd e967 173d
00000290: dd4f a3bd 5d3d 613b 1ad8 a73c 15a6 003d
000002a0: 1ef0 b9bd 9b3b 7a3d 56dc 36bd 8ec6 35bd
000002b0: b0b9 d2bb 0a92 2e3c c549 79bd 675d 7ebd
000002c0: 302b f43c 4c05 c1bc 9418 97bd cb40 4c3d
000002d0: 195b 393d d5fd a9bd a6c9 c93c b18c 843d
000002e0: bdc8 73bd 9615 acbc 872c 123d c993 8a3b
000002f0: 12e8 cc3c 44ec 98bd a6b2 4d3d a132 a3bc
00000300: 7642 5bbd 47a8 143d b0ea f63c 2bd6 4ebd
00000310: 0365 fabc 510b 56bc 7d66 1dbd 5e20 3dbe
00000320: b875 15bd 12c2 483d 442e ff3c 5cd7 9a3d
00000330: b795 afbd 76aa 97bd 3d83 9fbd 3027 77bd
00000340: 58e6 763c 528f b5bb 74f6 82bb 100c 733a
00000350: 9bcd cabc 058e 6bbd 40ac 6abd 43e2 c83c
00000360: 769b 5b3d 3599 7e3d 7671 8dbd 311f 86bd
00000370: 435a fd3c 3e78 63bd 00ca a039 3adc 783d
00000380: 7460 9e3d a143 383d 14bc 7e3d b98e 0f3d
00000390: c2cb 4c3d 8306 413d 5683 2ebd 0102 1a3d
000003a0: a111 913d 2d44 9abd 68ec 203d d565 473c
000003b0: 72ab a6bd e5bb 8f3c 0be8 4bbd d370 d03c
000003c0: 1462 f63c 26fd 86bc b899 8abc 9d06 5abd
000003d0: 5d35 4d3d 3e04 0a3c 1024 0e3d 39e1 dd3c
000003e0: 0820 81bd 81c5 c8bc fa57 8cbc 323a a0bd
000003f0: 6d53 48bd aa3c 963d b75d 7ebd 028d ca3c

bias f4 [2]
-0.057446983 -0.011906198
00000000: 874d 6bbd 3712 43bc
