weights/Swiss_G_5000eps.pt (torch, 536544 bytes, 8 tensors)

weight f4 [256, 2]
00000000: cc43 67be 22ce a43e 3822 373c f806 2e3f
00000010: 5e2b 2f3f 88c6 ccbe 4d42 083f 7459 183f
00000020: 886a 0fbd 3af0 d53e b50a 2bbf 347a 413e
00000030: d9f9 f43e 99a2 2b3c c54e 0e3e 52ee 35bf
00000040: 90af f83d a8ed b2be e2ce 1e3f c562 2cbe
00000050: 3501 293f ec01 25be 37fd 283e fb9d 8ebc
00000060: 2d26 903e a5d5 61be bfa1 f6be ec4b 2ebe
00000070: d858 0a3f 13ed 3b3e 5c34 303f 7500 f53e
00000080: 8d1b 4a3e 6840 0cbe 556c e7be 43f9 283f
00000090: cbd5 fbbe 354e 3f3f 55f3 e33e 293e e83c
000000a0: bead a9bd 6920 1bbf 207c 01bf 7118 db3e
000000b0: ca05 17bf 3096 1bbf ea08 c7be 52fb 263d
000000c0: e940 0abf 5754 76be b487 02bf 398b 963d
000000d0: dcd4 23bf 48b7 32bc 4aa0 43be e8d9 1dbf
000000e0: 9b97 09bd c339 b23d 41c6 ddbe e423 ae3e
000000f0: 1868 c23d c916 0f3f 3464 0f3f 5bbb 5ebe
00000100: 095c 1ebf 1bdd 173d ed64 39bf b85c 173f
00000110: b691 033f e1f8 d3be d491 c43d dbb5 3a3d
00000120: a4c5 823d 2b0e c23e 3efd 243f c176 a23e
00000130: 615c b33e 7d42 a4be 71a0 b43e c9a7 c63d
00000140: a1f6 babe 05bd e03d b8ce bdbe 2802 053f
00000150: 605e c43d 71db d23d 5390 c7be bfbc 14bd
00000160: 28b2 e83e 0c9d ad3e 1fd1 f33d a414 f03e
00000170: c63a b83e b951 1fbf 9891 aa3e a9f8 8b3e
00000180: 8f8a 87be dba5 2f3e 61b7 a2be 5b0b 2b3f
00000190: f9e0 293d e3e6 7f3e 45d2 d9be c001 dabe
000001a0: 5cf7 f73e 5aac c13e e1ab 42be c8d7 f43e
000001b0: 21cc 943e 1e59 833d 9675 a3be 5bfb afbe
000001c0: 524a 373f d2e2 173e cb12 073f 4698 60be
000001d0: 81e0 c9be e291 cbbd c191 30bf 59b6 243e
000001e0: 5d65 563d 7670 e7be 5ea8 913e 6c4a 0dbe
000001f0: 0641 f2be ff6b babe 01f4 633e 4f2b 23bf
00000200: 6ae9 b7be e7e9 1c3f 4e48 b03e e5fe f03e
00000210: 16ef 2b3f cfa8 673d 240d 0ebf 51a8 e1bd
00000220: b258 a0be 999a 133f 5b74 b0be 3ed7 a7bd
00000230: ee77 303e fe7d b23e b242 27bf cf00 94be
00000240: 6bf6 1d3f b767 873d 0770 11bf 9056 073e
00000250: c7fe b7be 306d 04bf 3867 08bd 21cd 45be
00000260: 390f 0ebf 0c07 023e adcd 593c 9227 8d3e
00000270: 77d1 9cbe 8e19 d83e df9b e6bd 51b0 333e
00000280: 0cbb e1bd 784d b1be 8889 0fbf 64d7 153e
00000290: f53e 9e3e a579 453d 58b7 263f 2a72 c8be
000002a0: 11eb 843d f9be c9be 4a79 5b3d 9b5f 3f3f
000002b0: feb1 913e 7532 b2be 090f 82be c360 a53d
000002c0: ee7a 35bd 0f05 dc3d 1559 2abf f09b 8abe
000002d0: a21b 23bf a457 ff3e 0a41 c0bd 3a93 e43d
000002e0: fa24 29bf cac6 9c3c 780c 243f 9802 503e
000002f0: 5fa2 12bf bb86 fabc 4a96 e5be a6f6 e83d
00000300: 7633 24bf 3261 20be 4533 c73e a909 ef3e
00000310: 7453 d8bd 9142 1cbf faf3 d23e 23d8 bfbe
00000320: 5926 7c3e ce42 fabd 3567 f1be 138a 59be
00000330: 61d6 c83e 94d1 12bf 6386 553e 5c3f ce3e
00000340: f251 d4be 5b6c 0f3f 29f1 1f3f 0154 fa3d
00000350: d74d 09bf e503 20bf 5d47 183f 818a 08bf
00000360: 5bc4 e43d c2e5 1bbf 4aa9 30bf da8f b33e
00000370: 2422 05bf b069 7ebe 3dd0 583e 37a7 0e3f
00000380: 943a f53e 7c75 1ebf 5e8b d13e 267a 5d3d
00000390: 8cd7 233e 2413 143f e7ab 033f f08a f93e
000003a0: 0b96 23be ea9a a73e 8d90 3e3e f0e1 cbbe
000003b0: e638 2b3f 9119 903e 1bf7 87bd b614 273f
000003c0: 673e ecbe 98f0 25bf 8294 003f dae4 04bf
000003d0: 981b 1fbf ca10 e73e 5436 b83e 129f 043f
000003e0: 0928 69be b9b2 0fbf 8808 ad3d 2078 b73e
000003f0: c022 223f cf1a 11bf 5547 453d ce2b 40bd
-0.22584456 0.32188517 0.011177592 0.67979383 0.6842555 -0.39995217 0.53226167 0.59511495
-0.035013705 0.4178484 -0.6681321 0.18894273 0.4784687 0.010475778 0.13897236 -0.7106677
0.12142861 -0.34946942 0.6203443 -0.16834553 0.66017467 -0.16114014 0.16502844 -0.017409315
0.28154126 -0.22054155 -0.48170277 -0.1702115 0.54041815 0.18352155 0.68829894 0.4785191
0.19737072 -0.13696444 -0.45199838 0.66005343 -0.4918655 0.7472871 0.44521585 0.028349953
-0.08285092 -0.6059633 -0.50580025 0.42792085 -0.5899321 -0.6077604 -0.38873988 0.04076702
-0.54005295 -0.2405561 -0.50988317 0.07350773 -0.6399667 -0.0109079555 -0.19104114 -0.61660624
-0.033591848 0.087024234 -0.43315318 0.34011757 0.094925106 0.5589414 0.5601227 -0.21751158
-0.61859185 0.037076097 -0.72419626 0.5912585 0.5139421 -0.41400817 0.09598127 0.045583587
0.06385353 0.37901434 0.64448917 0.31731227 0.35031417 -0.32081977 0.35278657 0.09699971
-0.36516288 0.109735526 -0.37071776 0.51956415 0.09588313 0.102957614 -0.38977298 -0.036312815
0.45448422 0.3390888 0.11905121 0.46890748 0.3598234 -0.62234074 0.33314204 0.2733815
-0.264729 0.17153113 -0.31780532 0.668142 0.041474316 0.2499042 -0.42543235 -0.4257946
0.48430908 0.37826806 -0.19010879 0.47820878 0.29061988 0.06413482 -0.31925648 -0.34371457
0.7159778 0.14832619 0.5276305 -0.21933088 -0.39429095 -0.09939934 -0.689724 0.16085185
0.05234276 -0.45202988 0.28448766 -0.13797921 -0.47315234 -0.3641052 0.22261049 -0.6373796
-0.35920268 0.61294407 0.34430164 0.4706947 0.6716169 0.056557473 -0.554888 -0.11018432
-0.3131767 0.5765777 -0.34463772 -0.08195351 0.1723325 0.3486175 -0.65336144 -0.28906867
0.6170413 0.06611579 -0.56811565 0.13216615 -0.35936567 -0.51729107 -0.033301562 -0.19316532
-0.5549198 0.12698 0.013293666 0.27569252 -0.3062856 0.42206997 -0.11260199 0.17547728
-0.110220045 -0.34629416 -0.5606923 0.14632946 0.30907407 0.048211712 0.6512351 -0.391496
0.06490148 -0.39403513 0.053582467 0.7475526 0.2845611 -0.3480412 -0.25402096 0.080750965
-0.044306688 0.10743152 -0.6654218 -0.27072096 -0.6371404 0.49871552 -0.09387405 0.11160894
-0.66072047 0.019137759 0.64081526 0.2031349 -0.5727901 -0.030581823 -0.44841224 0.113751695
-0.64141023 -0.15662077 0.38906303 0.46687058 -0.105627924 -0.6103907 0.41201764 -0.37469587
0.24624003 -0.12219773 -0.47149053 -0.21244077 0.39226058 -0.5735104 0.20852046 0.40282714
-0.4146877 0.5602471 0.62477356 0.12223054 -0.536344 -0.6250594 0.5948389 -0.5333634
0.11170264 -0.6089746 -0.69008315 0.35070688 -0.5200522 -0.24845004 0.21173187 0.557239
0.47896254 -0.61898017 0.4092664 0.054071568 0.16000193 0.57841706 0.5143418 0.48738813
-0.15975206 0.32735378 0.18609829 -0.39820814 0.66883695 0.28144506 -0.066389285 0.6526598
-0.4614136 -0.6482024 0.50226605 -0.519117 -0.6215148 0.45129997 0.3597895 0.5180522
-0.22769178 -0.56132084 0.08448893 0.35833836 0.63334274 -0.5668153 0.04816373 -0.046916775

bias f4 [256]
00000000: 1367 843b 3fbb fbbe 7546 a8be 8af3 463d
00000010: a906 233f 6685 c8be 623c 60be 31d5 ea3d
00000020: 13fe 383f 966d 3d3e d103 cbbe df89 e4be
00000030: 1ce5 81be 46ef 28bf 96ae b0be 8107 903e
00000040: e9b0 f0be 18a2 dd3e 1e83 0ebf 131c 153e
00000050: c686 993e 3248 e73d 56d8 31bf 4dc8 95be
00000060: 1e85 1bbe bc71 a8be 4551 0fbf 5330 2b3c
00000070: d108 123c 94b5 0e3e 394c d5be 5cca 673d
00000080: 5ac6 dfbe e4d0 22bf adbf bbbe c478 25bf
00000090: b9c4 c7bd 70a6 6dbd fd31 50be a39f 5fbe
000000a0: 725b 18bf 7225 143e 4c0a be3e d10c 223f
000000b0: fa7d f03e 7292 78be a971 85be de87 ad3e
000000c0: 2679 30bf 7da0 e4be ba2e 2a3f b67f cd3d
000000d0: d3ec d2be 60bd 23bd 9263 e63e 17de 20bf
000000e0: 9d1a debe e4e4 90be 062d b1bd e8d0 c93c
000000f0: d17a 8fbe 6f23 453d d60b 373e 0b62 75be
00000100: ffca 23bf caa5 303f 7539 1f3f 4174 723c
00000110: c093 3cbe e954 1abf f3bf 90be 3184 ffbe
00000120: b57b 61be 5277 0cbe 07d5 c03e 1856 2c3f
00000130: d589 90bd 4fed c4be e4cc 13bf b40e 15be
00000140: 556a 0b3f 3c2b a73d 7215 a9be 0af7 ffbe
00000150: a17b 6b3e c538 13bf e0c4 243e b691 9f3e
00000160: 6c58 31be fbe1 413e 1c51 4d3e 5d32 9f3b
00000170: 3ec5 b03e 6b30 cf3e 22d2 e53e f167 b0be
00000180: 00cf 263f 93b4 253e 9c79 373f 1864 303d
00000190: 5d3e 223f cfe9 603e cc59 07bf b719 213f
000001a0: 8df1 eb3e d2de 083f 9bac 253e 9f43 bfbe
000001b0: e74d bb3e 1aee 223f bad5 2ebf e9fc c43e
000001c0: 5e44 a93e 5f6c 433b aeef 21bf b680 fbbe
000001d0: 9b51 713e 711c b1be 782f 963e 0a1a fdbe
000001e0: d867 0d3f 2bad 9c3c 6dd6 11bf 2d6c 593e
000001f0: 62ac 943e 8e95 003f f755 8cbe f044 0dbf
00000200: 8640 b6be d409 103e a11b 093f c72a 713e
00000210: 1990 a6be 24dc 73bc 3f4b 3dbe 4d14 cb3e
00000220: 43fa e93e debe 06bf a839 01bf 4d50 18bf
00000230: 2399 f5be 4bea 21bf 08fd 18bf 32f8 ce3e
00000240: 69af 3ebe f504 3b3e 4ed7 c13e 7a3d 1bbf
00000250: a694 02bf 515a 10bd a937 43be b8a4 a73e
00000260: e55a 753d b761 5d3e e2cf ad3e 4379 653e
00000270: a821 13bf 950c 853e 68d4 2dbf 48f8 6c3e
00000280: ef22 323f a235 2b3e 2ead cabe db53 633e
00000290: 52c1 ac3e 5a4d e03e 42f6 1fbf 59c0 f4be
000002a0: 878d 013f 549b 233f dae2 15bd 03ae 003f
000002b0: 3d57 17be dd87 703e ce76 2bbf c8ce 0bbf
000002c0: 92e0 203e 5484 c8be 5411 003f 60f8 38be
000002d0: c6a2 27bf 723f 2cbf 3148 833d a8c7 2a3f
000002e0: d33a f7be d02a 31bf 9c72 63bd fbbe b7bd
000002f0: e5b5 17bf d070 fb3e 1cd2 29bf 3733 07bf
00000300: 237a ccbe 7c31 0cbd ff9d b6be 379e 21bf
00000310: 0ad4 083f d53b dabe 714b 44be 6733 f63d
00000320: 0955 cabe ae92 f93e b44e 4d3e a48e 0c3f
00000330: 10cc 24bf a21c 3f3e 1d09 1fbf 1509 133f
00000340: b9fe 083f 65dd 51bc 8289 b73e ab49 c0be
00000350: ee24 ccbe 1978 87be f5c5 5cbe 9bb4 e33d
00000360: 8095 96be 0c62 e2be bfc3 8e3e 7a07 2bbf
00000370: 2fc3 54be e25b 7cbe 4dc3 15bf 37ef a8be
00000380: caed a53e 74b9 e2bb 8f6b fcbe 31a6 6dbe
00000390: 71e1 1bbf c641 10bf 21ee 5fbe 1a37 25be
000003a0: 6d93 043f a2e5 78be 5dee babe d0c7 e63e
000003b0: f5a7 383f b6af 01bf 45e5 83be b4da 0ebe
000003c0: c59d 7cbe e9f9 453e cc13 12bf a5c2 a23c
000003d0: f05d c7be c30d 96be b8c7 8b3e 24ee eb3e
000003e0: b459 7ebe 2fa8 763e daac a8be 1031 7ebe
000003f0: 1777 143f dd44 38be 0933 88be bc60 c5be
0.0040406077 -0.49166295 -0.32866254 0.0485721 0.6368204 -0.39164275 -0.21898034 0.11466444
0.72262686 0.18498835 -0.3965135 -0.44636437 -0.2537011 -0.659901 -0.34508198 0.28130725
-0.47009972 0.4328773 -0.5566882 0.1456149 0.29985636 0.11293067 -0.6947073 -0.2925438
-0.15187499 -0.32899272 -0.5598338 0.010448533 0.008913235 0.13936454 -0.41659716 0.05658947
-0.43706018 -0.6359999 -0.36669675 -0.646374 -0.09754319 -0.058020055 -0.20331569 -0.2183824
-0.59514534 0.14467409 0.3711723 0.63300806 0.46971112 -0.24274614 -0.26063278 0.3389272
-0.6893486 -0.44653693 0.6647755 0.100341246 -0.41196308 -0.039975524 0.4499784 -0.6283888
-0.4337968 -0.2829963 -0.08651166 0.024635747 -0.2802339 0.048129495 0.17875609 -0.23963182
-0.6398162 0.69002974 0.6219705 0.014798225 -0.18415737 -0.6028581 -0.28271446 -0.49905542
-0.22019847 -0.13717392 0.37662527 0.6731887 -0.070575394 -0.38462302 -0.57734513 -0.1455639
0.54459125 0.08162543 -0.33024174 -0.49993163 0.2299638 -0.575085 0.16090727 0.31165856
-0.17318887 0.18933861 0.20050472 0.0048582987 0.34525484 0.40466627 0.4488688 -0.344543
0.65159607 0.16182165 0.71669936 0.043064207 0.6337641 0.21964191 -0.52871394 0.6292986
0.46082726 0.53464997 0.16179125 -0.37356278 0.36582872 0.63644564 -0.6829487 0.38474205
0.33059973 0.0029819233 -0.6325635 -0.49121636 0.23566286 -0.34592012 0.2933309 -0.4943393
0.5523658 0.019125542 -0.5696781 0.21232672 0.29037768 0.502282 -0.27409336 -0.55183315
-0.35596102 0.14066249 0.53557783 0.23551475 -0.32531813 -0.014884029 -0.18485735 0.39663926
0.45698747 -0.5263499 -0.504786 -0.5949753 -0.47968397 -0.6324813 -0.59761095 0.40423733
-0.18621601 0.1826361 0.37859577 -0.6064068 -0.5100807 -0.035242382 -0.19064201 0.32742858
0.059901137 0.21619307 0.33947664 0.22409539 -0.5747323 0.25986162 -0.6790223 0.23141587
0.69584554 0.16719678 -0.3958525 0.22199957 0.33741242 0.43809015 -0.62485135 -0.47803
0.5060658 0.63908887 -0.036593296 0.5026552 -0.14779373 0.23489328 -0.66978157 -0.546124
0.15710667 -0.39163458 0.5002644 -0.18063498 -0.6548275 -0.6728431 0.06410254 0.667109
-0.48287067 -0.6920595 -0.055529222 -0.089719735 -0.59261924 0.49109507 -0.66336226 -0.5281252
-0.39936933 -0.03422688 -0.35667416 -0.6313204 0.53448546 -0.42623773 -0.19169404 0.12021523
-0.39518002 0.4874472 0.20049554 0.5490515 -0.64373875 0.18663266 -0.6212328 0.57435733
0.53513676 -0.012809132 0.35847098 -0.37556204 -0.39871925 -0.26458815 -0.2155989 0.11118432
-0.29410934 -0.4421543 0.27883717 -0.66808283 -0.20777582 -0.24644426 -0.5850113 -0.32995006
0.3240798 -0.0069190804 -0.4930081 -0.23207928 -0.6089087 -0.5635036 -0.21868183 -0.16134301
0.51787454 -0.24306348 -0.36509982 0.4507432 0.7213128 -0.5065874 -0.25760856 -0.13950616
-0.2466956 0.19333614 -0.5706146 0.019868204 -0.38938856 -0.29307374 0.2730081 0.46080124
-0.24838907 0.24087594 -0.32944375 -0.24823403 0.57994217 -0.1799502 -0.26601437 -0.38550365

weight f4 [256, 256]
00000000: 06fb 81bc 92f5 ab3c 7a0a 3fbd e584 8dbc
00000010: c13a 24bd ff02 8abb 07c4 a9bc 9e8b 093d
00000020: 2591 40bd fb6c 493d c38b 923d ac50 2c3d
00000030: 8cab 9a3d a686 9c3d 51b3 bdb9 1025 2f3d
00000040: 0a5e d53c 7457 4fbd be80 683d d6a8 cfbc
00000050: 4edf 7e3d dd75 a9bc 2b56 63bd 7437 67bc
00000060: 282a 633d 1c03 c7bb 6328 913d 3e88 f5bb
00000070: c546 5ebc 6c20 843c 3786 c63c 574a 04bb
00000080: dd44 e13c 1351 823d 7017 3bbc 401e 83ba
00000090: 6b31 153d 93fe 1abd 29d8 b6bc 3671 973d
000000a0: d3d0 863d f811 31bb 8029 a6bb d1a5 183d
000000b0: 7676 9abc 01aa 4f3d d5bb 323d 113e 82bc
000000c0: 8485 623c 0657 f5bc 538e 59bd e619 10bc
000000d0: 7394 8b3d dad6 863d 87c0 1dbd 7904 023b
000000e0: 8c62 64bc eb06 963d 11ff ea3c 4307 b0bc
000000f0: eadc 633d db6c acbc ac9b 343d 9347 b23b
00000100: 1266 043d e062 423d 817c 3abd de38 a3bb
00000110: 797b 8dbc f065 c13c cd7d 84bb 597f 25bd
00000120: e871 27bd 76c5 3ebc 9a71 65bc e41c 5ebd
00000130: b96a 5f3d 377a 9fbc 42a0 b9bb 88ea 473c
00000140: ef45 10bd 1a34 ef3c b39e f43c d730 8e3d
00000150: 1ac7 203b e282 a13c 4cd5 e83c c1e8 57bc
00000160: 8ab2 6ebc a8f8 983d c0b9 743d edbf 543c
00000170: 6c71 24bd b972 363d 164b acbc a239 293d
00000180: 5a9c d73a 6346 bdbc 45fa 56bd 41c1 0c3c
00000190: 7285 f83c d8ea 6b3d 926b 0dbd 14c9 47bd
000001a0: df05 e2bc 454c 98bc 8a4f a8ba b9c6 08bd
000001b0: d418 893d e627 ec3c 3c25 bd3c 84e1 653d
000001c0: 86e8 353d a31a db3c 544b 443d 304d 493d
000001d0: 4461 3739 bf1e 753d 407f 89bc 114a 8a3d
000001e0: 2e3d 713c ac24 e9bc 1349 04bd aad9 813d
000001f0: e5c4 1dbd f12d 6c3d 624b 833d ce27 15bd
00000200: 624e ac3d 4b1e 1cbc dfa3 efbc 01a6 17bc
00000210: 716e 29bc d31f 52bc 281b 11bd 30d0 c2ba
00000220: e2b5 5b3d 1d79 03bd 4805 4f3c e903 293d
00000230: 3c6e 863d 9861 6fbd 87a3 893d 28ed 70bd
00000240: 68d9 5f3c 7b58 00bd de40 49bb ee9d 743d
00000250: b4d4 a23d da64 953d e415 a1bb 1852 303d
00000260: c88a 583d 2d50 38bd 5c08 043d 467d 6f3d
00000270: 3391 26bc 19e9 3d3d 6bdb 91bc 3bb3 0dbd
00000280: 20ec 4b3c 0def e33c 31b2 5f3c 8363 853d
00000290: 939e 95bc 044e 34bd bb40 0abd 780d fe3c
000002a0: ad35 2d3d 55ac 20bd bd10 a3bc 76bc 2bbc
000002b0: e03c b13c d5f7 d03c d380 2a3d e163 8b3d
000002c0: 0415 4fbd c957 02bd b4ee e5bb cfa9 e1bc
000002d0: 9ae4 fd3b fe31 d8bc 58f1 973d cabb 85bc
000002e0: d9c8 063d 066d 853c 31a6 cfbc 9ccf ce3c
000002f0: 2397 17bd 164f 653c 8507 0f3d 4318 6fbd
00000300: 9826 27bd eba0 c4bb 2a80 7f3d 3a8c 54bb
00000310: 60ea 52ba b5b7 9f3b fea5 d1bb 9261 01bc
00000320: a779 bd3c 4221 cfbc 7589 183d 17fa d9bc
00000330: f86d a53d 054d 61bc 6367 9bbb 2000 fd3c
00000340: ef1c 1bbd 5e4b 603d 3748 5b3d 22ad 2cbc
00000350: ebcb 8cbc ed46 443d 4c14 983d c873 c23c
00000360: 4834 263d 060f 4c3c d103 213c 6984 4c3d
00000370: a797 863d c165 adbc 85e5 1b3d d739 20bd
00000380: fa1a 113d b840 5c3b e752 4e3d 22bf 2abc
00000390: eb31 1bbd b27a bf3c abbf c0bb 1dc1 0abd
000003a0: e967 0abc 3b97 b73c 6964 063d 09bc 71bc
000003b0: c6b0 18bd b5ee 1f3c 4c3f 873d 515a 2f3b
000003c0: e437 0abd 9744 42bd 8c8d 2c3d 49f4 1cbd
000003d0: 241c d63c 813a 3ebd 3009 39bd c5a2 13bd
000003e0: 9db6 c73c 805c 3dbb d41c 073d deb3 273d
000003f0: 642e 393c 0cf8 9fbc dc3b 2a3c 39fe 23bd
-0.015866768 0.02099112 -0.04664085 -0.017275283 -0.040095095 -0.004211783 -0.020723356 0.033580415
-0.04701342 0.049176197 0.07155564 0.042069122 0.07552251 0.0764287 -0.0003618249 0.042759955
0.026045818 -0.05062051 0.056763403 -0.025349062 0.06222468 -0.020686084 -0.055502098 -0.014112342
0.055460125 -0.0060733687 0.07087781 -0.007493048 -0.013566677 0.016128741 0.02423392 -0.0020185912
0.027498657 0.0636312 -0.011419162 -0.0010003522 0.03642408 -0.037840437 -0.02231987 0.0739464
0.06582799 -0.0027018767 -0.005070865 0.03726751 -0.018855315 0.050699238 0.04363616 -0.015898736
0.013825778 -0.029948723 -0.053114247 -0.008795237 0.06815424 0.065839484 -0.038513687 0.0019839092
-0.013939511 0.07325538 0.028686078 -0.021487838 0.055630602 -0.021048 0.044093773 0.005440661
0.032323904 0.047457576 -0.045528892 -0.0049811443 -0.01727079 0.023608178 -0.004043317 -0.04040465
-0.040880114 -0.011643758 -0.0140041355 -0.05422677 0.054545138 -0.019467456 -0.005664856 0.012201913
-0.035222944 0.029199649 0.02986083 0.06942909 0.0024532736 0.01971573 0.02842202 -0.013178051
-0.014568934 0.074693024 0.059747458 0.012985212 -0.04014723 0.044543 -0.021031898 0.04131473
0.0016449795 -0.023104852 -0.05248477 0.008590997 0.03033707 0.05759701 -0.034526415 -0.048775747
-0.02759069 -0.018591056 -0.0012841087 -0.03339264 0.06694189 0.028827619 0.023089044 0.05612327
0.044411205 0.0267461 0.0479234 0.049145877 0.00017488474 0.059843775 -0.01678431 0.06752408
0.014724059 -0.02845987 -0.03229625 0.06340344 -0.03851785 0.057661 0.064108625 -0.036414914
0.08413388 -0.009528707 -0.029252945 -0.009255887 -0.010341273 -0.01282497 -0.03542629 -0.001486307
0.053640254 -0.032097925 0.0126355365 0.041263495 0.06563994 -0.058442682 0.067206435 -0.05881992
0.0136626735 -0.03133438 -0.003070883 0.059720926 0.07950726 0.072946265 -0.0049159396 0.04304704
0.052866727 -0.044998337 0.032234535 0.05846908 -0.010166454 0.046364877 -0.017804822 -0.034594756
0.012446433 0.02782395 0.013653324 0.06513121 -0.01826409 -0.044019714 -0.033753138 0.031012282
0.042287517 -0.03922685 -0.019905442 -0.010481944 0.021635473 0.0255088 0.041626763 0.0680616
-0.05055715 -0.031822 -0.007016981 -0.027546791 0.0077481987 -0.026391026 0.074190795 -0.016324896
0.032906387 0.016287338 -0.0253478 0.02524548 -0.03700937 0.013995906 0.03491928 -0.058372747
-0.04080829 -0.006000628 0.062378086 -0.0032432214 -0.0008045789 0.0048741945 -0.0063979616 -0.007896798
0.023129297 -0.025284413 0.037240464 -0.02660851 0.080776155 -0.013751273 -0.0047425493 0.030883849
-0.03786939 0.054759376 0.053535666 -0.010539325 -0.01718708 0.047919203 0.07425746 0.02373685
0.040577203 0.012454754 0.00982757 0.049930964 0.06571894 -0.021166684 0.038060684 -0.03911766
0.035426117 0.0033607911 0.05037203 -0.010421546 -0.037889402 0.023373935 -0.0058822236 -0.033875573
-0.008447626 0.02241098 0.032810602 -0.014754304 -0.03727796 0.009761502 0.0660387 0.0026756714
-0.033744708 -0.047428694 0.042127177 -0.038318906 0.026136465 -0.046442512 -0.045174778 -0.0360439
0.024379069 -0.0028894246 0.032986477 0.04094302 0.011302564 -0.019527458 0.010390248 -0.040037367

bias f4 [256]
00000000: c2ac a4bc 708c d13c c9fb 21bd aca3 793d
00000010: 13ec 943c a86e 5dbd 93d6 573c 61fd 633c
00000020: a998 9cbc 2a20 4b3d baa7 803c 6155 d0bc
00000030: 66b5 723d 5ecf 3f3d b8ae a6bc 569d 1a3c
00000040: b500 80bc 9910 053c 19b3 3b3d 62c3 b33c
00000050: 4075 f23c 4364 f23a 62b1 033b 355e c3bb
00000060: 092f 3d3c 7ac7 553d ddca f3bc 5152 613d
00000070: b194 1e3d d99d 2e3d feae 48bd 8c5f 3c3d
00000080: d09d 213d 38f8 a63c 7baf 5a3d 0c11 603d
00000090: c5a7 56bc 5c49 d8bc e26f a53b 4005 d83c
000000a0: 176a 6d3d 49f2 883d 07df 3ebd 38ae 8f3d
000000b0: e76a de3b b7fc 37bd 136f 06bd 3e42 673d
000000c0: f5de 463b c710 f73c 3786 19bd 4219 0a3d
000000d0: 45c5 d23c b8cd 643c 991a c3bc 35f8 39bd
000000e0: 0c34 203d 2bae bd3c 5776 793d edc6 cc3c
000000f0: 49f4 343d eea6 cebc 4f95 d23c bcc2 a9bc
00000100: 732d 0a3d 2641 2bbb 3048 923d 3bff 0bbd
00000110: 6580 8e3c d646 c5bc b5c9 1a3c 50ec 0a3d
00000120: 749d 4cbd 0efd 913c 7639 0abb 7850 133d
00000130: 54ae dfbc 28f4 063b 7dff 41bc 3aa0 aebc
00000140: c095 16bd 70ae 1fbd 1d1f 09bc 5444 ff3c
00000150: 907a 81ba 4078 843d c7a3 b7bc e9f7 13bd
00000160: 7629 6d3c 4458 fb3c 03f5 823d de90 c4bc
00000170: 6ecf 40bd 1107 dabc 6bc0 3f3d b507 8d3c
00000180: cc13 b9bb e35a 5e3d 3898 593c 4a9d 08bd
00000190: eccd 7e3c 6bee 733d d734 9fbc cfae 113b
000001a0: 3f53 b5bc a199 653d 07ed 65bd 88ab 353d
000001b0: 2f5f 73bd bfc5 eb3c b58c 8e3d 31bd dcbc
000001c0: 7a1a 5e3d c120 473d abe0 8c3c f7b1 1ebc
000001d0: 4e3d 03bd b76c c23c b067 09bd 9e84 8f3d
000001e0: 7453 7abd c306 773c 8437 d63c 633b 803d
000001f0: 1e32 04bd 260b 3a3d 5550 c33c 26e7 67bd
00000200: dcb1 1b3d 75e1 ecbc 530d 793d 252a 063b
00000210: c78e 1a3d 8959 733d 4700 f5bb a0ff 2b3d
00000220: ae71 363d 0ddd 123d eb04 7c3d bb8c 7b3d
00000230: c81c 2cbd bbf1 c43c ff1a 823b d730 393d
00000240: 400e 5c3d a3a6 fbbc c914 19bd 3f02 583d
00000250: 42c1 403b 8fd5 a83c c72e 043d d6cf 9cbc
00000260: 1e83 1cbd 13f8 2fbd da90 603d 6fc4 0cbd
00000270: 5bf4 723b 60e2 20bd d4da 1ebd 74c4 e9bc
00000280: 1486 fa3c 7391 563d 84f0 30bd 6f76 703d
00000290: 626d 413d 28de 0ebc b0e2 c43c 4849 c13c
000002a0: d818 4d3c 4e31 6dba 1880 57bd 0e57 adbc
000002b0: 2da7 d13c 5d58 793c f1c1 2c3d 52de a3bc
000002c0: 7906 a3bc 79dc 3f3d ce98 e3bc f5ed b43c
000002d0: 4c77 c5bc d838 983b aafa fabc 5934 53bc
000002e0: b18f 093c 6018 b53c 062f 863b 6d2f 2cbd
000002f0: e0cf 343d 6189 51bd 9fe2 93bc e431 8e3d
00000300: af69 a53c 05f6 b23c 1052 053d 92e5 6b3d
00000310: 968d 993d b43b b9bc 0485 09bc 4e4d cfbc
00000320: 8b75 10bd a450 573d f759 e03c daaf 923d
00000330: 0c7f bd3c 6a8b 8e3c 0b1b cf3c 70c6 2f3c
00000340: c43c eabb aca6 5abd 1405 3dbd 2b06 453d
00000350: fb63 013d f02c 4d3d fefb 5c3d 167f 913b
00000360: 6269 073d 6301 193d 996f 2b3d 8bf3 913d
00000370: f63a 87bc a695 c3bc 003a 4a3d bc25 e5bb
00000380: 9670 6b3d 1efd 89bb 62f5 e83b 7feb 92ba
00000390: 4d17 603d b7d4 143d 41ce 973d cb2f 7cbc
000003a0: 3344 c6bc 10e8 4ebd b427 d1ba 091a 8e3c
000003b0: bd97 933c 38e0 0d3d 9988 22bd 9e1b 433d
000003c0: 9010 0d3d dfa8 033d b74f e43c 9d82 6a3d
000003d0: c15e 1bbc b5ca 5fbd 5579 6fbd 008a a13c
000003e0: f60d 783d 7de6 783d 9b00 0e3c faee b0bb
000003f0: 8cf1 943d 273c 3b3d b96d 26bc b355 3dbd
-0.020101909 0.025579661 -0.03954676 0.060947105 0.018178975 -0.05406061 0.013173717 0.013915391
-0.019115763 0.04959122 0.015704978 -0.025431337 0.059255026 0.04682862 -0.020346984 0.009436926
-0.015625337 0.008121633 0.045825098 0.021943752 0.029596925 0.0018493015 0.0020094742 -0.005962158
0.011546859 0.05219219 -0.029759819 0.055010144 0.038716022 0.042631004 -0.04899501 0.045989558
0.039457142 0.020382032 0.053390007 0.054703757 -0.013101523 -0.026402168 0.005048738 0.02636969
0.057962503 0.06686837 -0.046599414 0.070156515 0.006787646 -0.044918742 -0.032820772 0.056459658
0.0030345295 0.030159367 -0.037481513 0.033715494 0.025728831 0.013965063 -0.023816394 -0.045402724
0.039112136 0.023154339 0.060903873 0.024997199 0.04417828 -0.025226083 0.025705962 -0.02072274
0.03373475 -0.002613136 0.07142675 -0.034178954 0.017395208 -0.024081629 0.009447505 0.03391677
-0.049954847 0.017820861 -0.0021091378 0.035965413 -0.027304806 0.0020592306 -0.011840698 -0.021316636
-0.036763906 -0.038984716 -0.008369234 0.031160511 -0.0009878445 0.06468248 -0.022416962 -0.036125097
0.014475217 0.030681737 0.063943885 -0.02399486 -0.04707282 -0.026614698 0.046814363 0.017215589
-0.005648112 0.054285895 0.013280921 -0.033353128 0.015552025 0.059553545 -0.019434376 0.0022229438
-0.022134421 0.056054715 -0.05613425 0.044353038 -0.059416946 0.028780816 0.069604315 -0.026945682
0.05422447 0.04861522 0.017196974 -0.009685985 -0.032040887 0.02373348 -0.03354615 0.070077166
-0.061114743 0.015077296 0.026149519 0.06261327 -0.032274358 0.04542079 0.023842016 -0.056616925
0.038011417 -0.0289161 0.060803723 0.0020471897 0.03773382 0.05941156 -0.0074768397 0.04199183
0.044542007 0.03585534 0.061528128 0.061413508 -0.042019635 0.024041047 0.0039705033 0.045212593
0.053724527 -0.030719107 -0.037373338 0.052736517 0.0029412066 0.020609645 0.032271173 -0.019142073
-0.03821098 -0.04296119 0.05482564 -0.03436702 0.0037071917 -0.039278388 -0.03878291 -0.028536059
0.030581512 0.052384805 -0.043198124 0.058706697 0.047223456 -0.008719958 0.024033874 0.023594514
0.01251813 -0.00090481795 -0.052612394 -0.021159675 0.025592411 0.015218821 0.042177144 -0.020003472
-0.019900547 0.04684112 -0.027782824 0.022086123 -0.024104737 0.004645448 -0.030637104 -0.012890899
0.008396075 0.02210635 0.004094961 -0.042037416 0.044143558 -0.051156405 -0.018052397 0.0694311
0.020191995 0.021845827 0.032548964 0.057591982 0.074977085 -0.022611476 -0.00839353 -0.025305416
-0.035268348 0.05256714 0.027386649 0.07162447 0.02313187 0.017400462 0.02528145 0.0107284635
-0.007148357 -0.053381607 -0.04614742 0.048101585 0.03158949 0.050091684 0.053951256 0.0044401987
0.033059485 0.037354838 0.041854475 0.0712653 -0.016507607 -0.023875069 0.04937172 -0.0069930237
0.057480417 -0.004211082 0.00710933 -0.0011209099 0.05470972 0.036335673 0.07412387 -0.015392254
-0.024202442 -0.05051428 -0.0015957267 0.017346399 0.01801669 0.03463766 -0.03968105 0.04763376
0.034439623 0.03214347 0.027870042 0.05725347 -0.00948304 -0.054636676 -0.05846532 0.019719124
0.06056019 0.060766686 0.008667137 -0.005399582 0.07272634 0.045711663 -0.010157996 -0.046224307

weight f4 [256, 256]
00000000: 722e 9bbd 6897 213d 1d18 c53c 074f 06bd
00000010: 878b 22be 8243 92bc d05e b23c 3d29 35bd
00000020: b146 ee3c 6872 81bd 447f 2b3d e6f7 92bd
00000030: f47b 993d bb8e ab3c f502 7ebd a718 d63c
00000040: 79d4 6abc c811 9abc 865d 7e3d d67d 623c
00000050: 2a69 e6bc 2d37 fcbc a4c3 cc3c 5f14 1ebe
00000060: 0309 05bc 720d 19bd 186b 2ebc 0177 6dbe
00000070: 437f f53b 0463 90bc dc09 f8bc 38fb 413d
00000080: ffe9 2c3d a889 54bc 126b 5dbd cc25 67bd
00000090: e447 d6bc 8d28 2d3d 384c 8f3d 4833 8ebc
000000a0: 7cb6 54bd 05d0 16bd d624 3d3d 1ffa 7a3c
000000b0: c2af ecbd d2d3 993b 9e65 7bbd e642 2fbd
000000c0: e38a 1b3d c3bf 80bb 8b60 29bd e53e abbd
000000d0: a3ee da3d b298 8b3d 8f60 3ebd 03c9 b3bc
000000e0: f698 0cbc 8f71 d23b c0d7 623d 802f 7f3d
000000f0: cbb6 1f3d 1bf8 6c3d 9e18 5e3d 8be6 43bd
00000100: ef85 25bd 2cfe 8aba 6078 913c f77a 903d
00000110: c0cd 86bd f96a 81bd 70df 0c3a 1afe bb3c
00000120: 40cb 713d 04ea 423d 3d45 22bd 31f2 0abd
00000130: ad85 49bd d4d3 7e3c 5743 1b3d 77c4 7ebc
00000140: 391f 883d f927 b0ba 5170 3c3d d24b e2ba
00000150: 4445 493d 6db1 763d a4fb 4dbd 0a9b 843c
00000160: 5b78 2cbd 5a51 4fbd 136c 41bd b615 2ebe
00000170: 1d1f 66bd 092e 09bd d29d f93c f3f1 83bd
00000180: 45c0 303c fa7a d1bc 17cd 30bd c7b2 e9bc
00000190: 1421 473d 6413 fc3c 0100 babc 9403 1f3d
000001a0: 123f 913c cf90 56bd d436 b1bd 3dba 10bc
000001b0: 0c59 b13a 92e3 fcbc 6a37 a3bc 85c9 73bd
000001c0: 06dc 003d 9eda b7bd 050c e13b 475d f3bc
000001d0: 8e99 01bd 3817 35bd d124 583c de54 d1bc
000001e0: d99f b1bd 905e 3d3d 3a99 15bd b3f9 d63a
000001f0: c61f 763d c794 17bd c607 f2bd 4e27 43bd
00000200: 3701 de3c 47db 9ebd cb3f b63d 051b c0bd
00000210: be56 be3c 6395 8c3d 58a4 7a3d daf3 16bd
00000220: ac8c 823d d843 3bbd 2fcf 9e3c 3741 a0bc
00000230: 43cb 263d ad5e 1dbd 2200 a2bc fed8 38bd
00000240: c9a2 2cbd eb14 a6bd 9a02 783c c4e3 b0bd
00000250: 00a5 da3b bca4 edbc f7a7 a1bc c091 c53b
00000260: 908a 3a3d 0d1d 3c3d 59f9 02bd 31f5 613c
00000270: 48fc 833d a546 f2bc 1499 3c3d a7e6 5a3d
00000280: 904a e5bc 142d c23c 2a60 59bd f2bd ce3c
00000290: bc92 563c 74b5 2cbd e0f0 76bb 8049 233d
000002a0: 8c1a 03bd 839a 243c 8945 853c cc4d e5bb
000002b0: 71b9 b23c 2c6c 593c c440 7e3d d4b8 3bbd
000002c0: 4542 53bc 1617 fe3d 4bd8 e1bc 4895 873d
000002d0: 3a3d 11bd a4dd 2e3d 9642 2b3c 89c3 5f3d
000002e0: e4da e3bc 7ef3 c4bc 39f6 15bd a276 163c
000002f0: 4746 00bd de61 253d 8ea4 a23c b9e2 52bb
00000300: b036 3dbd 8137 e8bc 79b4 03bd 0a8e 393d
00000310: ec12 1b3d 187e 1f3d 916a 32bd 7c6e 1d3d
00000320: eb0e a6bc 6921 94bc 631d 123d 3ae1 813c
00000330: f269 1b3d 738c 083d 8efc 17bd db7c 6f3d
00000340: 1acf 1ebd 9651 34bd 8b18 51bd 64ed fabd
00000350: 5d68 33bd b17c 37bd 786a b53c 8bb0 00bd
00000360: 76b6 a53a 9798 83bd 0c60 b5bc 0d42 c03c
00000370: a4b9 1cbd 8f8e 163c d219 81bb 0dda f4bc
00000380: dff6 6bbd 910f d2bc 42c4 86bd 1258 8bbd
00000390: 6f5d 2fbd bc8b a9bc 17fe edbb b0c8 87bd
000003a0: d694 35be 5a72 07bd 7c76 61bb 15e9 cbbc
000003b0: f9db 883d 4870 4abb 4880 febc 15a9 ab3c
000003c0: 6562 16bd 8b9f 7cbc c38c 903d d96f af3c
000003d0: 7847 14bd 407d 59bd 635f 20bc c361 1cbc
000003e0: a98a 37bc f418 3f3d 3ce1 5cbd 2cf2 45bd
000003f0: f3f7 cd3c ced5 86bb 2422 253d d746 ebbc
-0.07577218 0.039451033 0.02405935 -0.03279021 -0.15873538 -0.017854456 0.021773726 -0.04422878
0.029086443 -0.063206494 0.041869417 -0.07176189 0.07494345 0.020942083 -0.06201454 0.026134802
-0.014332884 -0.018807307 0.06210091 0.013823947 -0.028126318 -0.030788029 0.024995632 -0.15437458
-0.008119824 -0.037366338 -0.01064565 -0.23189928 0.0074919774 -0.01762534 -0.030278139 0.04735872
0.042215344 -0.012972273 -0.05405719 -0.05643253 -0.026157327 0.042275 0.069969594 -0.017358437
-0.051931843 -0.036819477 0.046177708 0.015318423 -0.11556961 0.0046944404 -0.061376207 -0.04278841
0.03797425 -0.00392911 -0.041351836 -0.083616056 0.106900476 0.06816234 -0.046478804 -0.021946436
-0.008581391 0.0064222286 0.055381536 0.06230116 0.038992684 0.0578538 0.054222696 -0.047827285
-0.040410932 -0.0010604314 0.017757595 0.07054704 -0.065822124 -0.063192315 0.0005373871 0.022948314
0.059031725 0.047586456 -0.039616812 -0.033922378 -0.04919975 0.015553433 0.037906017 -0.015549771
0.0664658 -0.0013439647 0.04600555 -0.0017265028 0.049138322 0.0602278 -0.05028881 0.01618721
-0.042106967 -0.050614692 -0.04722221 -0.1700047 -0.056182016 -0.03349117 0.030470762 -0.064426325
0.010788028 -0.025571335 -0.04316434 -0.02852763 0.04861553 0.030770965 -0.02270508 0.03882177
0.01773027 -0.052384194 -0.08653036 -0.008833465 0.0013530566 -0.030870233 -0.019923884 -0.059518356
0.03145983 -0.08977245 0.006867888 -0.029707564 -0.03164058 -0.044211596 0.013192371 -0.025553163
-0.08673067 0.04623276 -0.03652308 0.001640132 0.060088895 -0.03700712 -0.11817889 -0.047644906
0.027100189 -0.077566676 0.08898886 -0.093801536 0.023234721 0.06864431 0.061191887 -0.03685365
0.06374487 -0.045718998 0.019385902 -0.019562347 0.04072119 -0.038420368 -0.019775454 -0.045128815
-0.04214743 -0.081094585 0.015137339 -0.08637193 0.0066725016 -0.029009216 -0.019733412 0.0060293376
0.0455423 0.045926142 -0.031976078 0.013791368 0.06444603 -0.029574702 0.046044424 0.053442623
-0.027989656 0.023703136 -0.053070225 0.025237057 0.013096508 -0.042165235 -0.0037680194 0.039865017
-0.03200774 0.010046604 0.016268509 -0.0069977995 0.021816941 0.013270419 0.062073484 -0.045830563
-0.012894218 0.12406747 -0.027568957 0.0662027 -0.03545878 0.04269184 0.010452887 0.054629836
-0.027814336 -0.024041887 -0.03661177 0.009183558 -0.03131702 0.040376537 0.019853856 -0.0032178594
-0.046194732 -0.028346779 -0.032154534 0.045301475 0.037859842 0.03893861 -0.04355866 0.038435444
-0.020270785 -0.018082337 0.035672557 0.015854467 0.037942834 0.033337068 -0.03710609 0.05846868
-0.038771726 -0.04402312 -0.051048797 -0.1225231 -0.0438007 -0.04479665 0.022145495 -0.031418364
0.0012642879 -0.064255886 -0.022140525 0.023468995 -0.03826298 0.009189262 -0.0039398456 -0.029889131
-0.05760848 -0.025642188 -0.06580402 -0.068039075 -0.042813715 -0.020696513 -0.007262956 -0.06630075
-0.17732558 -0.03306804 -0.0034402898 -0.024891416 0.066825815 -0.0030889679 -0.031067029 0.020954648
-0.03671493 -0.015418897 0.07058098 0.021415638 -0.03620097 -0.053097963 -0.009788367 -0.009544793
-0.011202493 0.046654657 -0.053925738 -0.048326656 0.025142645 -0.004114843 0.040315762 -0.028720303

bias f4 [256]
00000000: 16a0 ccbb 176e 733d 4baa 7a3c 6290 443d
00000010: d90f 883d 9059 4f3d 21c8 cab9 9c28 853d
00000020: 1e5b 963b 6b06 8b3c 280d 2dbd ee6f 963c
00000030: 542e c6bc 5d88 893d c280 abbc 0b74 863d
00000040: bc39 15bd d9d6 8c3d 5796 143d 74b6 073d
00000050: 45b7 133d 47cd f83b a73e 633c 4f04 adbc
00000060: bd34 2b3c 8363 d33c a24a 36bb d8a3 7539
00000070: 1577 2f3b 4629 633c e347 15bd c2cc 06bc
00000080: 584a c8bc 5756 673d 7ec1 0e3d a9e0 1bbd
00000090: 7dad 1abd 9f36 8c3d c6ce f5bc ce81 373d
000000a0: c7c0 893d 74a7 5abd df9f 233d f86c 8e3d
000000b0: 4feb 4abd 85fc ef3c 72aa 343d fd68 f6bc
000000c0: 9590 73bc ea6e 5abc 1166 773c 8620 183d
000000d0: a045 5bbd a4b5 a6bc 03c9 793d 4b7a 173c
000000e0: 9b72 643d f2f8 26bd fc11 883d 98c8 23bd
000000f0: 9ea5 843d 0215 62bc ed9c 503d ae07 683d
00000100: c381 603d 6fc3 093d 74e9 433b f610 423d
00000110: 95af ccbc 8313 323d 82a0 f1bc 48eb d63c
00000120: 494f 48bd fe09 8b3d f511 baba c4b2 7fbc
00000130: 9f41 03bc cd4e 583d b697 a3bb 1ec3 2fbd
00000140: 3ff6 75bc 443c 9dbc f02a 56bd 4c12 44bd
00000150: 5636 393b eb8d b53b 5f94 4c3d 14f0 b3bc
00000160: d5b0 9a3a afbf 58bd c909 693d f8ca 98bc
00000170: ab4a 2abd ec1a 883d 7301 563d 160c 40bd
00000180: e43c 8abc e639 5b3c 620c ed3c 63e8 1d3b
00000190: caba 253d 2f95 793d 6152 a43c a68f 23bc
000001a0: 57da a53b 2ddd c8bc 9612 1c3d 4850 b63c
000001b0: 63e4 803d a27f 35bd d374 d4bc b929 003d
000001c0: 40f8 483d a2c7 0dbd 547d 81bd b783 823d
000001d0: a731 bd3b f2dc 543d eeee eabb c7ea e3bc
000001e0: 0b9c 55bd 1e42 4b3d d844 05bd dac3 423d
000001f0: 4965 433d cd79 9b3c ab3d 3dbd 28d0 5e3d
00000200: a2a1 63bd e49c 16bd b106 303d 02e9 b93c
00000210: 58b3 54bd cbc6 dabc 920f fb3c 16db 893d
00000220: b781 633b 66c6 09bd 85d6 04bd f7b7 033d
00000230: 6b01 123d 7ac0 0ebd 9cbe 993b dd9b 03bd
00000240: 6a61 0a3d dddb e03c f2b5 e03c 47b8 06bd
00000250: 1862 353d 3b76 0b3d d568 633d 1330 1dbd
00000260: 7899 653d d278 19bc 9521 15bd 521d 91bc
00000270: 3e59 40bd 9574 51bc 240f 923d 2dc2 6f3d
00000280: 0ddf e63c 28b1 27bd 5f0b bbbb f48c 5cbc
00000290: 8cd0 dd3c a8f4 c7bc d3ce 80ba c3b6 0bbc
000002a0: 8818 903d f2e2 753d 5df2 92ba 3571 ee3c
000002b0: bbfc 393d d25f 01bd 427d 57bd b821 1bbc
000002c0: dca0 673c 9e66 df3c c718 3cbc 528e 3d3d
000002d0: e280 5c3c b61f 33bd de42 193d 42af 0a3d
000002e0: d59a b73b 51ce 333d f237 1bbd 0ff6 0c3c
000002f0: 9ded 3e3d af5d e7bb 6de2 083d aeab af3c
00000300: d362 4b3d 599a 543d 88c5 9b3d 8624 ab3c
00000310: 307d 85bc 3adb e2bb 9c49 3ebd 737c 55bc
00000320: 03a5 dcbb bafb f2bc 9011 2ebd d008 e13c
00000330: f1bb 623d 4726 073d 49c5 393b 4afa 19bd
00000340: 4837 4339 80db 31bd f535 32bd 6c25 043c
00000350: 2d50 4ebc f747 f93b 5057 f0bc b8c9 74bd
00000360: 509f 023d 3021 b83b 2359 58bd 6eb7 913d
00000370: e282 3b3c ca55 8f3d 4a1c b1ba 8091 d7bb
00000380: 40af 0e3d 229a 7e3d 064a 6abd 04e1 fbbc
00000390: dec5 c93c a2c4 453d 8e50 2abc e110 4c3d
000003a0: 2ad4 a1bc 4724 55bc d9e2 3a3d 6267 b03c
000003b0: 9a95 38bd 2a2a ebbb 0127 923d 28f2 9e3c
000003c0: 880e cfbc 4b03 033d bd9f 8e3c a976 fc3c
000003d0: 53e2 12bc 3e94 56bd 5c93 223d 252e b0bc
000003e0: 04a4 36bd 1617 fa3b 3557 07ba e198 923d
000003f0: 5ae5 a2bc ee76 9ebb 07a5 8b3d a487 2cbd
-0.0062446697 0.05943116 0.01529939 0.047989257 0.06643648 0.050622523 -0.0003867755 0.06501886
0.0045884987 0.016970834 -0.042248875 0.01836392 -0.024192013 0.06715462 -0.02093542 0.06565102
-0.036432013 0.068769164 0.036276188 0.033132985 0.03606345 0.0075928303 0.013869918 -0.021120219
0.0104495855 0.025804287 -0.002781548 0.00023426057 0.002677386 0.013864821 -0.03644551 -0.008227529
-0.024449512 0.056478824 0.034852497 -0.03805605 -0.037763108 0.06846356 -0.030005824 0.044801526
0.067262225 -0.053382352 0.039947387 0.06954378 -0.049540814 0.029295215 0.04410786 -0.03007936
-0.014866014 -0.013332108 0.015100018 0.03714039 -0.053533196 -0.020350285 0.060982715 0.0092454655
0.05577336 -0.040764757 0.06644055 -0.039986223 0.064769015 -0.013798954 0.050930906 0.05664795
0.05481125 0.033633646 0.0029893788 0.047379456 -0.024986068 0.04347564 -0.029495481 0.026235238
-0.048903737 0.06789015 -0.0014196025 -0.015606586 -0.008011251 0.052809525 -0.0049924506 -0.042910688
-0.015012323 -0.019193776 -0.052287042 -0.04786901 0.0028261147 0.0055405996 0.049946185 -0.021965064
0.0011801968 -0.05291718 0.056894097 -0.01865147 -0.041575115 0.0664576 0.052247476 -0.046886526
-0.016874738 0.013380503 0.028936569 0.0024094812 0.04046134 0.06093329 0.020058813 -0.009982979
0.0050614285 -0.024519527 0.038103662 0.022255078 0.06293561 -0.044311173 -0.025934612 0.03128979
0.049064875 -0.034614213 -0.063227326 0.06372779 0.0057737413 0.051968522 -0.007169596 -0.027821911
-0.052150767 0.0496236 -0.032536358 0.04755006 0.047704015 0.018978978 -0.04620139 0.054397732
-0.055574067 -0.036770716 0.04297513 0.022694115 -0.051928848 -0.02670612 0.030647073 0.067312405
0.0034714767 -0.033636473 -0.032431144 0.032157864 0.035645884 -0.03485153 0.004691912 -0.032131065
0.033784308 0.027448589 0.027430508 -0.032890584 0.044283003 0.0340483 0.055519897 -0.038375925
0.056054562 -0.009367185 -0.03640898 -0.017714176 -0.046960108 -0.012784143 0.07131794 0.05853479
0.02818253 -0.040940434 -0.0057081426 -0.01346134 0.027076982 -0.024408653 -0.0009827263 -0.0085274605
0.07035929 0.060030885 -0.0011211146 0.029106716 0.04540704 -0.031585522 -0.05260969 -0.009468488
0.014137473 0.027270611 -0.011480517 0.046278305 0.013458462 -0.043731414 0.037417285 0.033858545
0.005603174 0.04389793 -0.03789515 0.008603587 0.046613324 -0.0070607285 0.03341906 0.021444168
0.049654793 0.05190501 0.076060355 0.02089144 -0.016295046 -0.0069231065 -0.046456918 -0.013030159
-0.006733538 -0.029661048 -0.042497218 0.027470022 0.055355016 0.03299549 0.002834635 -0.03759221
0.00018617243 -0.043422222 -0.04350849 0.008065563 -0.012592358 0.007607456 -0.029338509 -0.059762686
0.031890213 0.0056191906 -0.052819382 0.071150646 0.011444779 0.06998785 -0.0013512459 -0.0065786242
0.0348351 0.06215871 -0.0571995 -0.030746944 0.024630483 0.048283227 -0.010395182 0.049820784
-0.019754488 -0.0130091375 0.045626495 0.021533672 -0.045064546 -0.007176657 0.07136346 0.019402578
-0.025275484 0.031985562 0.017410154 0.0308183 -0.008965093 -0.05238747 0.039691314 -0.021506378
-0.04459001 0.0076321466 -0.0005162836 0.071580656 -0.019884754 -0.004835955 0.06818586 -0.042121544

weight f4 [2, 256]
00000000: a861 5e3d 8992 20ba 6335 b03b 73c1 5a3d
00000010: d8a5 973c d30f 703d 6f24 4c3d a369 21bc
00000020: 910f edbd 200b fbbc 6ef3 d6bc d384 93bd
00000030: bad0 7cbd 8edc 8d3d 2728 1cbd a885 6f3b
00000040: 8cd8 02bd 485a f9bc 0cfc 8cba 404b 82bd
00000050: 6dd6 723d 07a4 2ebd a5d7 0e3d 8fdd 36bd
00000060: 0981 1a3d 2544 5dbb 9681 143d e4bd 4abd
00000070: a3fa e1bc ea47 653d 92cf 3dbd 3d55 853d
00000080: f0ae 86bd f1b4 443d 9791 89bd 4777 04bd
00000090: f316 123d 0cd5 87bd ea09 193d d853 8a3d
000000a0: 2517 403d c066 36bd a215 fabc 5fcd 4c3c
000000b0: 21e7 e1bc ffb9 ab3a 0054 efbc 30be 84bc
000000c0: 7fe7 753c 07e5 89bd d7c2 19bd 437c 0d3d
000000d0: 9d4f 08bd 8441 38bd c8be 8abd 15a1 e5ba
000000e0: ee45 843d 4762 3abc 39a6 4a3d e057 2b3d
000000f0: ab5a 823d b5f1 903d 3a8f 1d3d d166 bb3c
00000100: e869 87bc 7d21 833c 8c00 593d 5962 053d
00000110: 9a33 32bc cbbe debc f379 813a a49e 863c
00000120: 20b3 093d 1e4a 053c d510 6f3c 76d5 36bc
00000130: 7d5e b5bc 8695 aebc e7f3 83bd db3d 533d
00000140: 917c 713d 7e8c 96bd 6ad0 eabc f986 c53d
00000150: 02ff 46bb e5af 133c 8f76 803c 4c44 8abd
00000160: 1f5f 413c f7ce 4b3d a4d4 6bbd c9bc 293b
00000170: c680 37bd 04d5 1d3d 38c1 0e3d 3a54 3d3d
00000180: 91c3 33bd 8b36 2bbd 52ab 023d 70ac 893d
00000190: 4a38 91bc 7340 13bd addc 543d 43c2 68bd
000001a0: 7803 263d ebe8 dbbc 5a68 67bd 1280 623d
000001b0: d9a3 1dbd f031 a73c 6bb1 a13c a0e8 13bd
000001c0: 55c3 3a3d 37a7 d93c 64e2 2cbd 76a1 5bbc
000001d0: 7c63 77bd d2c0 843d f65a 343d f797 023d
000001e0: 448b dfbc 27dc 003d bdb2 21bd 1a2e ba3c
000001f0: 514e 473d df76 933d 89e2 72bd c451 fd3b
00000200: ac03 26bd 8c04 b33d cf76 6dbd 329c 44bd
00000210: c1d6 e1bb b13e 2d3d 2561 32bd e5a7 10bd
00000220: 55ed 89bc 4241 923d 8ee8 823d cad6 0c3c
00000230: 7c15 e73c fb94 963d 3a88 46bd c668 14bd
00000240: 49c8 7dbd d78e 953d 6ef5 43bd 7ef7 6a3c
00000250: bd07 eb3c e220 233d 1f68 89bd fc58 963c
00000260: 78dd 87bd 8c2d 85bd d23a d7bc e312 c33c
00000270: 5dce 6abd 8d39 f53c 6f1c ddba 89f4 063d
00000280: a785 4d3d efe4 96bd caf3 683d 58f4 5bbd
00000290: ec34 433d 69b6 0cbd 990a 00bd 1faa 03bd
000002a0: 6e12 40bd b958 203c 43c2 76bd a60a 55bd
000002b0: 61b9 503d 0133 ab3c 6306 49bc 6699 6cbd
000002c0: 06a2 923d 03ba 92bc a320 14bd d3fb 9a3d
000002d0: 34a6 65bd 440a 42bd b648 92bd b634 44bc
000002e0: 5267 70bd fe65 9ebb 1044 25bd d218 59bd
000002f0: 0adb 0b3d 859f 603d a5cd 393d eb4e 6fbd
00000300: e53f 14bd 129d 5e3c ed03 3f3c c63b a33c
00000310: 4014 123d f373 eabc c86a 933d 5edf a0bd
00000320: 92ec 4c3d 09d4 b4bb 4ac4 2d3d 950c 2cbd
00000330: fce3 0c3c a050 27bd a4e5 23bd 42ee 70bd
00000340: 0344 22bd 9dff d83c 437e 563d 84ef 573d
00000350: 1452 613c b830 04bd b78a 513d c8e4 2b3d
00000360: 52ed 773d 90c5 353d dc1b 01bc bc77 74bd
00000370: 29f0 fcba 0c22 c2bc 2b5b 66bc 4088 8abb
00000380: e454 b9bc 6ced 343d e8ec 1f3d a92b 0b3d
00000390: 3e8c 503d 8b07 ad3c 9210 45bd d2fc 6c3c
000003a0: 908e 113d db78 4d3d c6c8 683d c991 6b3d
000003b0: 8ebd efbc 5cb6 873d 7327 4dbd 65ff 5fbd
000003c0: c7b0 ae3c 57c7 0b3d eb30 73bd bdbc 7f3d
000003d0: cc55 13bd 2322 2cbd ee32 31bd 823e 153b
000003e0: 5cd4 423d d2b0 283c b558 893d 7bb1 7ebd
000003f0: 599c 08bd 5c44 44bd aff0 9dbd 9dfd a4bc
0.05429235 -0.0006125351 0.005377458 0.053407144 0.018511698 0.05860884 0.049839433 -0.009851846
-0.11575235 -0.030644953 -0.026239123 -0.072030686 -0.061722495 0.06926833 -0.03812423 0.0036548171
-0.031944796 -0.030438557 -0.0010756268 -0.06362009 0.059286524 -0.042636897 0.034873623 -0.04464489
0.037720714 -0.003376254 0.036256395 -0.0494975 -0.027585333 0.055976786 -0.046340533 0.065103985
-0.065763354 0.04802412 -0.06717222 -0.032340314 0.035666417 -0.06632432 0.03736297 0.06754273
0.046897072 -0.044531584 -0.030527893 0.012500136 -0.027576031 0.0013101696 -0.029214859 -0.01620397
0.015008806 -0.067331366 -0.03753933 0.034542333 -0.03327905 -0.044984356 -0.0677467 -0.001751932
0.064586505 -0.01137597 0.04947493 0.04183185 0.0636495 0.07077352 0.03846667 0.022876175
-0.016529992 0.01600718 0.052979037 0.032564495 -0.010876561 -0.027190587 0.0009878263 0.016433068
0.033618093 0.008135347 0.014591415 -0.0111592915 -0.022139782 -0.021311533 -0.06443005 0.05157266
0.058956686 -0.073510155 -0.028663833 0.096448846 -0.00303644 0.0090141045 0.015681533 -0.06751308
0.011802464 0.049757924 -0.057575837 0.0025899878 -0.044800542 0.038533226 0.034852237 0.046222903
-0.04388768 -0.041800063 0.031901665 0.06722343 -0.017727036 -0.035950135 0.051968265 -0.056825887
0.04053065 -0.026844462 -0.056496 0.05529792 -0.038486335 0.020409554 0.01973792 -0.03611052
0.04559644 0.026568992 -0.04220809 -0.0134051945 -0.06039761 0.0648209 0.04403206 0.031883206
-0.027288087 0.031459954 -0.0394771 0.022727061 0.048658673 0.07200407 -0.059298072 0.0077306945
-0.040530846 0.087411016 -0.057974633 -0.048000522 -0.0068920557 0.042296115 -0.043549675 -0.035316367
-0.016836802 0.07141353 0.063920125 0.008596132 0.028208487 0.073526345 -0.04846976 -0.036232732
-0.061958585 0.07302635 -0.047841482 0.014341233 0.028690213 0.03982628 -0.06709313 0.018352978
-0.06634039 -0.06502828 -0.026273165 0.023812717 -0.05732571 0.029934669 -0.0016869436 0.03294805
0.05017629 -0.07367884 0.05687312 -0.05369982 0.047657892 -0.034353647 -0.031260107 -0.032144662
-0.046892576 0.009786778 -0.060243856 -0.05201211 0.05095804 0.020898344 -0.012269589 -0.05776348
0.0715981 -0.017910963 -0.036163937 0.07567563 -0.056066707 -0.04737307 -0.07142775 -0.011975458
-0.058692284 -0.0048339358 -0.040348113 -0.053002186 0.03414444 0.05483963 0.045362134 -0.05842487
-0.036193747 0.013587253 0.011658651 0.019925963 0.035663843 -0.028619742 0.07198101 -0.07855104
0.0500303 -0.0055184406 0.042423524 -0.042004187 0.008599278 -0.040848374 -0.040013924 -0.05882097
-0.039615642 0.026489073 0.052366506 0.052718654 0.013752479 -0.032273024 0.05115768 0.04196623
0.06052906 0.044377863 -0.007880177 -0.0596845 -0.0019297648 -0.023697875 -0.014059822 -0.004227668
-0.022623487 0.044171736 0.03904429 0.033977184 0.050914995 0.02112176 -0.048111506 0.014464574
0.03553635 0.050164085 0.056832097 0.05751208 -0.029265191 0.06626579 -0.05008645 -0.054686923
0.021324528 0.034125652 -0.059372824 0.062435854 -0.035970494 -0.042024743 -0.04326146 0.0022772853
0.047565803 0.0102960635 0.06706373 -0.062180977 -0.03335223 -0.047916755 -0.077119224 -0.020140463

bias f4 [2]
00000000: bed3 37bd 8416 133d
-0.044879667 0.035910144
